models/model_roundabout/actor.pth (torch, 565191 bytes, 6 tensors)

net.0.weight f4 [256, 288]
-0.06218346 -0.06635607 -0.010120774 0.06512039 -0.0068051587 0.0065191807 -0.058892347 -0.0041239886
0.002677068 -0.011748696 -0.04291257 0.02260805 0.049987443 0.039793536 0.063710816 -0.08465028
-0.053147998 0.07246368 0.03965068 0.057991404 0.010228667 0.0033355616 -0.05110838 -0.04467784
0.052277375 0.108688265 0.0287484 0.02246011 -0.031353682 -0.10669437 -0.04949097 -0.026418872
0.09110466 -0.0022628596 0.025965853 -0.10687122 -0.0003583574 0.1087977 0.071937025 0.12681098
-0.08322038 0.09266594 -0.017136026 0.02096983 -0.057178468 -0.11457038 -0.10052008 0.02035246
-0.19562273 0.00093584415 0.046334572 0.07118987 0.016302977 0.019941218 0.072124764 -0.015861474
-0.051042657 -0.010727757 0.03930371 -0.09379974 -0.04023747 0.036498584 0.07835588 -0.07516252
-0.077398665 0.05536235 -0.0179897 -0.019932028 -0.051637553 -0.014710972 0.05660795 -0.012010086
0.0014323462 -0.064055584 -0.040955875 -0.034228735 0.10803441 -0.057296727 0.031330526 0.04110734
-0.06733619 0.082179956 0.11550455 0.053886525 -0.09305415 0.09545339 -0.036306478 0.009954128
-0.06964011 0.0082063405 -0.08595422 -0.029833693 -0.103224546 -0.043618426 0.084897 -0.012712022
0.039536282 -0.14069825 -0.12632066 0.088830076 0.053469405 -0.06706874 -0.023581333 -0.08968968
-0.13641086 -0.09057795 0.12744401 0.095684804 0.0183929 0.038382653 0.0068540713 -0.045980494
-0.011164327 0.011577836 0.034900695 -0.07127315 -0.07483733 -0.08618346 -0.0026043234 -0.09274737
-0.10720559 -0.052609578 0.051909313 -0.07034807 -0.08050529 0.03614314 0.027202258 0.114045724
0.013353406 -0.10331718 -0.015149315 -0.0073898663 -0.018714417 -0.044011634 -0.06157484 -0.0013151623
-0.12911801 0.05069168 0.036959574 0.09554228 -0.041531388 -0.11314501 -0.05317856 -0.06081977
-0.045931257 -0.07736042 -0.0033043541 -0.103623934 0.0016988817 0.003232973 -0.006817657 -0.06206487
-0.026735088 -0.054944497 -0.02614418 -0.064808786 0.07834191 -0.024660164 -0.063914604 -0.023852468
-0.11170378 0.09995592 0.01182339 0.115681045 -0.051699977 0.10820756 0.003458007 -0.008408802
-0.092434354 -0.10177084 0.07324621 0.006276351 -0.036982752 -0.11026231 -0.06900173 0.032175776
0.027313689 -0.11324524 -0.11483649 0.101817645 0.06344366 0.12310054 0.017487718 -0.08761196
0.050424546 0.06442236 -0.07168556 0.01162188 0.07098614 0.030828228 0.06192093 0.008510718
-0.117283344 -0.1519566 0.055127814 0.01777871 0.039692964 -0.03687063 0.07894132 0.081065044
0.11753833 -0.022579324 -0.025043564 0.019489948 0.01104913 0.011631152 -0.018968446 0.087500125
0.0088265855 0.09287877 -0.09397191 0.106696896 0.05591726 0.15613088 -0.063276164 -0.018642917
-0.06662184 0.01826101 0.08173984 0.033074256 -0.048313204 0.09377661 -0.008925662 0.0132290255
0.0293933 0.03866753 0.0038746172 -0.053110607 0.0252122 0.021581506 0.021404587 -0.06030566
0.070626386 0.044164985 -0.045842662 -0.09182062 0.0040820586 0.09206661 -0.024292773 -0.067897476
0.098117754 -0.039906576 -0.046055745 0.023612808 0.095627725 -0.039607976 0.027182268 -0.054054257
0.08517436 0.077031285 0.045355354 -0.071296446 -0.053369217 -0.035271518 0.0668867 -0.068431064
00000000: 15b4 7ebd b1e5 87bd 9ad1 25bc d75d 853d
00000010: cffd debb da9e d53b 1a39 71bd 8622 87bb
00000020: c071 2f3b 9a7d 40bc 17c5 2fbd 8434 b93c
00000030: a2bf 4c3d 8cfe 223d d17a 823d 205d adbd
00000040: b7b1 59bd d667 943d c068 223d 6588 6d3d
00000050: 2496 273c 7099 5a3b 0557 51bd 1c00 37bd
00000060: cd20 563d f497 de3d c481 eb3c 44fe b73c
00000070: b86c 00bd 9482 dabd 0bb7 4abd 646c d8bc
00000080: 1495 ba3d 7c4c 14bb 57b6 d43c 4cdf dabd
00000090: ebe1 bbb9 54d1 de3d b853 933d bdda 013e
000000a0: 726f aabd a4c7 bd3d da60 8cbc ecc8 ab3c
000000b0: f833 6abd e0a3 eabd 79dd cdbd 34ba a63c
000000c0: 5351 48be 7053 753a 52c9 3d3d ffcb 913d
000000d0: d28d 853c c45b a33c 26b6 933d ecef 81bc
000000e0: 1b12 51bd 79c3 2fbc edfc 203d 141a c0bd
000000f0: 0cd0 24bd 8a7f 153d 0c79 a03d cfee 99bd
00000100: 3183 9ebd a2c3 623d 235f 93bc 7e48 a3bc
00000110: e681 53bd 4a06 71bc bddd 673d f4c5 44bc
00000120: 90bd bb3a 932f 83bd 59c1 27bd 6e33 0cbd
00000130: 2541 dd3d f9af 6abd 7054 003d 2c60 283d
00000140: 8ee7 89bd f74d a83d a68d ec3d 1eb8 5c3d
00000150: 2d93 bebd 117d c33d 1ab6 14bd a416 233c
00000160: 799f 8ebd e373 063c c408 b0bd ca65 f4bc
00000170: 6467 d3bd 3ca9 32bd 7ade ad3d 1646 50bc
00000180: ccf0 213d 3413 10be 345a 01be 8bec b53d
00000190: bc02 5b3d 565b 89bd a42d c1bc 39af b7bd
000001a0: 4aaf 0bbe ef80 b9bd af80 023e 65f6 c33d
000001b0: b5ac 963c 2137 1d3d 1e98 e03b 0b56 3cbd
000001c0: 95ea 36bc f7b0 3d3c 08f4 0e3d a8f7 91bd
000001d0: 5044 99bd f480 b0bd 4cad 2abb 55f2 bdbd
000001e0: 9b8e dbbd 247d 57bd dc9e 543d a612 90bd
000001f0: f5df a4bd d40a 143d 45d7 de3c ce90 e93d
00000200: 3fc8 5a3c f597 d3bd d534 78bc b126 f2bb
00000210: fa4e 99bc 8b45 34bd e635 7cbd 8661 acba
00000220: 8337 04be 14a2 4f3d ec62 173d acab c33d
00000230: d11c 2abd 92b8 e7bd c3d1 59bd 271e 79bd
00000240: 6a22 3cbd 246f 9ebd dd8d 58bb c938 d4bd
00000250: 03ad de3a 49e0 533b a766 dfbb bc37 7ebd
00000260: 8b03 dbbc 7b0d 61bd 522c d6bc 78ba 84bd
00000270: b971 a03d 1d04 cabc a9e5 82bd 4066 c3bc
00000280: f4c4 e4bd b0b5 cc3d e4b6 413c 2fea ec3d
00000290: 5bc3 53bd ed9b dd3d bb9f 623b 12c5 09bc
000002a0: 394e bdbd 3b6d d0bd 1c02 963d d9a9 cd3b
000002b0: 3a7b 17bd 35d1 e1bd c750 8dbd bfca 033d
000002c0: f5c0 df3c 1fed e7bd 652f ebbd c585 d03d
000002d0: c0ee 813d 231c fc3d 6742 8f3c e66d b3bd
000002e0: f889 4e3d dfef 833d e1cf 92bd b369 3e3c
000002f0: 2e61 913d 7b8b fc3c cda0 7d3d 8a70 0b3c
00000300: 4032 f0bd 839a 1bbe b4cd 613d a8a4 913c
00000310: 1795 223d a805 17bd fdab a13d 6e05 a63d
00000320: f0b7 f03d 46f8 b8bc 2928 cdbc 62a9 9f3c
00000330: 6907 353c 9690 3e3c b763 9bbc 4433 b33d
00000340: 629d 103c 3937 be3d 5874 c0bd e783 da3d
00000350: 7f09 653d c6e0 1f3e ef96 81bd 08b9 98bc
00000360: 0871 88bd 1d98 953c 3867 a73d df78 073d
00000370: 11e4 45bd f40d c03d f13c 12bc 8ebe 583c
00000380: 38ca f03c d861 1e3d 4aed 7d3b 828a 59bd
00000390: d189 ce3c b3cb b03c ac58 af3c 1103 77bd
000003a0: 91a4 903d 58e6 343d 84c5 3bbd 730c bcbd
000003b0: cac2 853b 6b8d bc3d a301 c7bc d50d 8bbd
000003c0: f6f1 c83d 1475 23bd f3a4 3cbd a66f c13c
000003d0: 78d8 c33d f93b 22bd 59ad de3c ff67 5dbd
000003e0: e56f ae3d 94c2 9d3d 89c6 393d df03 92bd
000003f0: ae99 5abd de78 10bd e5fb 883d 9625 8cbd

net.0.bias f4 [256]
-0.038722377 -0.060891982 0.005283392 -0.057942804 -0.032128863 -0.0333424 -0.038071815 -0.03173599
-0.058065426 -0.023276849 -0.0060589416 -0.026981495 0.016347969 -0.043675303 -0.018956639 -0.04559492
-0.019247998 0.0099359965 -0.0091359755 0.04312838 -0.043797594 -0.047105383 -0.029452862 -0.014598963
-0.04909579 -0.027164266 0.0010133034 -0.021285579 -0.04273868 -0.03761483 -0.0083429 -0.01259201
-0.057243843 -0.06612399 0.054254934 -0.06231061 0.0103517845 0.013244023 -0.012459562 -0.008028816
-0.005686756 0.0076664533 -0.023920992 -0.038439482 -0.07168841 -0.0061572306 -0.03885738 -0.037455034
-0.03638233 -0.015125058 -0.025447458 -0.029548181 -0.020956194 -0.004908666 -0.02060151 -0.019685877
0.0067777266 -0.035587534 -0.015206703 -0.006133975 0.020807656 -0.00091280974 0.005985074 0.0125156
-0.040903766 -0.041479517 -0.021231914 -0.008187381 -0.04101642 -0.020101584 -0.019851329 -0.04445125
-0.015187165 -0.015503532 -0.07669884 -0.042624757 0.0019666695 0.0095236 -0.027046194 -0.035190627
0.0036944384 -0.0350647 -0.007330887 -0.059059005 0.023509026 -0.017137865 -0.01347477 -0.028406246
-0.04626681 -0.011534718 -0.038338166 0.0028603624 -0.013761145 -0.026507206 -0.026180673 0.0028916611
-0.008072277 -0.04215697 -0.008683362 -0.034113254 -0.024457658 -0.023170894 -0.04497368 -0.0072498354
-0.031879842 -0.002867606 -0.026293164 -0.035653137 -0.015379223 -0.01750438 -0.02781098 -0.011790806
-0.040253855 -0.06038482 -0.004463682 -0.022603739 -0.04837759 -0.04607096 0.029858679 -0.026102401
-0.029211283 -0.05165139 -0.049876668 -0.009159429 -0.0072037103 -0.059269637 -0.04272598 -0.0035737217
-0.049852822 -0.041600097 0.013142915 -0.00430693 -0.027717179 -0.017864378 0.004459556 0.010517883
-0.050594047 -0.014324056 -0.04704845 -0.0035486491 -0.03093164 -0.016544482 -0.018615145 0.008495566
0.0047608316 -0.042713273 -0.04171056 -0.03472665 0.00031612962 0.0041157454 -0.008857527 -0.045289125
-0.031593647 -0.020105803 -0.030392338 -0.04370789 -0.028471507 -0.06228705 -0.024721034 -0.04330872
-0.041173603 0.013096527 -0.02521791 -0.026512412 -0.03956173 0.020727033 -0.008129467 -0.020923775
-0.042906445 -0.021702712 -0.00014980514 -0.02518442 -0.040615454 -0.040675007 -0.038111113 -0.013096154
0.01615011 0.0031646292 0.0016391567 -0.011800992 -0.01230027 -0.0068241674 -0.030716328 -0.013747887
-0.024908355 -0.054407224 -0.04497934 -0.010053417 -0.033457734 -0.024368143 -0.0067407116 0.005251839
-0.031556852 0.006243605 -0.042496596 -0.0008897576 -0.031836893 -0.04879592 -0.031262815 -0.005901273
-0.033170074 -0.014104203 0.023746744 -0.016227579 -0.027266392 -0.016646905 -0.02061047 -0.026448218
-0.020125858 -0.02800357 -0.024692738 0.00295169 -0.0046774433 -0.015046592 -0.065551855 -0.03590127
-0.024354758 -0.016525945 -0.04126633 -0.063347645 -0.020051744 -0.011915578 -0.011027163 0.015246458
-0.006059786 -0.0060956366 -0.032756437 -0.007791714 -0.028074779 -0.042264428 -0.03634049 -0.0389761
-0.016045807 -0.032464914 -0.037220977 -0.012306988 -0.007789612 -0.028657291 -0.01584413 -0.052190315
-0.047816604 -0.0046493397 0.0046056975 0.002578695 -0.046004105 -0.019347737 -0.0036527447 -0.013782138
-0.007246263 -0.05932374 -0.05347835 -0.023651268 0.010767433 -0.0027140928 0.017451903 -0.029459607
00000000: 5b9b 1ebd df69 79bd 4e20 ad3b 6f55 6dbd
00000010: 8e99 03bd 0a92 08bd 31f1 1bbd 99fd 01bd
00000020: 03d6 6dbd 17af bebc 168a c6bb 4c08 ddbc
00000030: 2dec 853c e0e4 32bd f44a 9bbc bdc1 3abd
00000040: faad 9dbc 97ca 223c 0faf 15bc 62a7 303d
00000050: 1b65 33bd 93f1 40bd 2147 f1bc 7d30 6fbc
00000060: ab18 49bd 9887 debc d2d0 843a 185f aebc
00000070: c10e 2fbd 0212 1abd a9b0 08bc b84e 4ebc
00000080: 8578 6abd 046c 87bd 6c3a 5e3d 6939 7fbd
00000090: 889a 293c 75fd 583c 3123 4cbc 4c8b 03bc
000000a0: f857 babb df36 fb3b f5f5 c3bc b872 1dbd
000000b0: 60d1 92bd 98c2 c9bb eb28 1fbd 736a 19bd
000000c0: a305 15bd 17cf 77bc 3077 d0bc 070f f2bc
000000d0: 53ac abbc e0d8 a0bb 7fc4 a8bc 4744 a1bc
000000e0: b117 de3b 3cc4 11bd 8925 79bc 83ff c8bb
000000f0: d174 aa3c a049 6fba 711e c43b 3b0e 4d3c
00000100: b58a 27bd 6de6 29bd 8dee adbc 5d24 06bc
00000110: d500 28bd 14ac a4bc 419f a2bc 8412 36bd
00000120: 96d3 78bc 8702 7ebc 4814 9dbd 4c97 2ebd
00000130: 3de3 003b e008 1c3c fb8f ddbc 0c24 10bd
00000140: 641e 723b 01a0 0fbd f037 f0bb dbe7 71bd
00000150: 0096 c03c b564 8cbc 48c5 5cbc 37b4 e8bc
00000160: 4482 3dbd 1dfc 3cbc 7b08 1dbd eb74 3b3b
00000170: 6d76 61bc a425 d9bc da78 d6bc 0682 3d3b
00000180: 9541 04bc c9ac 2cbd a944 0ebc 57ba 0bbd
00000190: 6d5b c8bc e3d0 bdbc 5236 38bd 0790 edbb
000001a0: 7094 02bd 72ee 3bbb c364 d7bc 0609 12bd
000001b0: 23f9 7bbc 5865 8fbc dad3 e3bc 3a2e 41bc
000001c0: 3ae1 24bd 1356 77bd 1444 92bb 7a2b b9bc
000001d0: 9427 46bd e7b4 3cbd 309a f43c b4d4 d5bc
000001e0: 804c efbc 6890 53bd 7a4b 4cbd 6e11 16bc
000001f0: 1a0d ecbb b8c4 72bd 7001 2fbd 1a35 6abb
00000200: 7932 4cbd dd64 2abd 6255 573c 2621 8dbb
00000210: 230f e3bc 5158 92bc 7821 923b 3353 2c3c
00000220: b43b 4fbd 72af 6abc e0b5 40bd 7490 68bb
00000230: 5a64 fdbc 4b88 87bc ca7e 98bc fd30 0b3c
00000240: c000 9c3b 1df4 2ebd b1d8 2abd 883d 0ebd
00000250: 33be a539 60dd 863b 291f 11bc 1781 39bd
00000260: 5768 01bd edb4 a4bc 5af9 f8bc 0b07 33bd
00000270: 143d e9bc b520 7fbd c483 cabc 7c64 31bd
00000280: a7a5 28bd d192 563c ca95 cebc 8f30 d9bc
00000290: 7b0b 22bd bdcb a93c 7531 05bc 5668 abbc
000002a0: abbe 2fbd e3c9 b1bc 0315 1db9 8f4f cebc
000002b0: 645c 26bd d69a 26bd 661a 1cbd 4091 56bc
000002c0: 3c4d 843c ab65 4f3b f9d8 d63a f358 41bc
000002d0: 1287 49bc 449d dfbb cfa0 fbbc d13e 61bc
000002e0: 9b0c ccbc 1cda 5ebd 423c 38bd 16b7 24bc
000002f0: fa0a 09bd b39f c7bc 30e1 dcbb 9e17 ac3b
00000300: c241 01bd 2897 cc3b e910 2ebd 9f3e 69ba
00000310: 6767 02bd 3bde 47bd 700d 00bd 775f c1bb
00000320: 58dd 07bd 5115 67bc 8888 c23c b3ef 84bc
00000330: c55d dfbc 175f 88bc 4ad7 a8bc efa9 d8bc
00000340: fcde a4bc be67 e5bc 6d48 cabc 2471 413b
00000350: 3d45 99bb fb85 76bc 0d40 86bd 360d 13bd
00000360: a183 c7bc 6b61 87bc e206 29bd 69bc 81bd
00000370: 8e43 a4bc 8e39 43bc 46ab 34bc 48cc 793c
00000380: 2b91 c6bb e8bd c7bb 9d2b 06bd a251 ffbb
00000390: 14fd e5bc 771d 2dbd c4d9 14bd 67a5 1fbd
000003a0: 7f72 83bc eef9 04bd 0675 18bd 40a3 49bc
000003b0: 0040 ffbb b2c2 eabc 8dcb 81bc 83c5 55bd
000003c0: 58db 43bd 7d59 98bb 64eb 963b 53ff 283b
000003d0: cd6e 3cbd 257f 9ebc e362 6fbb 7ace 61bc
000003e0: 0f72 edbb 73fd 72bd 1d0c 5bbd 4ec0 c1bc
000003f0: e369 303c ecde 31bb 4bf7 8e3c 4655 f1bc

net.2.weight f4 [256, 256]
0.06537705 -0.0016575891 -0.00022013792 0.06643428 -0.011375721 0.005119651 -0.12293558 -0.112223916
-0.02387166 0.059655644 -0.022305751 0.10283453 0.09279094 -0.12245113 -0.022451287 -0.033469986
-0.0015595284 -0.0764725 0.06811871 0.053483993 -0.043313723 0.08038023 -0.018166063 0.058960002
0.1221891 0.09457953 0.044152625 0.0370832 -0.0009789965 -0.07266452 0.035673626 -0.10253561
-0.074012816 0.136 0.034585714 0.0826785 -0.039181 -0.06853383 -0.09103291 -0.013982272
-0.10970074 -0.13340618 -0.019261874 0.07082216 0.08622535 -0.046566177 0.019104498 -0.10718995
0.056137174 -0.025095375 -0.08041761 0.009448032 0.124776065 -0.07742951 -0.0683615 -0.017385548
-0.025618117 0.08133589 -0.028906485 -0.024138806 0.045430787 0.053291645 -0.082786 0.09963357
0.0008598255 0.031882472 0.049025305 0.0067389226 -0.09848362 -0.04421419 0.06478471 0.042200256
0.06939302 0.002849992 -0.014495231 0.015905477 -0.07661386 0.055584546 0.04035036 -0.101839334
0.04425383 0.0103352815 0.061658647 -0.116517775 -0.07634468 -0.11641824 0.074889556 -0.06581969
-0.0045772824 0.04767505 -0.106837675 0.026449136 -0.028962804 -0.08703113 0.1256783 0.016840974
-0.053904526 -0.0100587495 0.018870104 0.13098386 -0.026314499 -0.0053369687 -0.03722846 0.026517704
-0.10786788 -0.0102030225 -0.0036483647 0.035829272 -0.053467322 -0.12296482 -0.11889402 -0.019764978
-0.08194364 0.10412206 -0.025794636 -0.045531526 -0.014338646 -0.077855416 -0.031251743 0.08137203
-0.07831813 -0.08131537 0.027865708 -0.020836225 0.014303109 0.003919542 0.044435974 -0.013947164
-0.037333462 -0.05498924 -0.17673145 0.010893245 -0.04823085 -0.015194823 -0.00086146954 0.09812298
-0.07531744 0.056662537 0.06380243 0.08053817 0.10980438 -0.15860821 0.006675448 0.044990174
0.01885775 -0.100066125 -0.06103475 -0.076092236 0.14123255 0.0023979116 -0.11558551 0.047993895
-0.026916511 -0.00019623636 0.11660946 -0.071580596 -0.0810438 -0.05640974 0.020990944 -0.026121907
0.03602368 -0.06078024 0.055077136 -0.08437645 0.098374166 -0.021705445 0.106399804 -0.015770584
0.03151725 -0.09629865 -0.070941344 0.025997259 -0.0353977 0.0936118 0.09420299 -0.043216173
-0.07725254 -0.06664359 -0.003589555 -0.09118242 -0.0011709488 -0.115790576 0.030709783 0.05185128
0.011135314 0.06829314 -0.055311177 0.016250331 0.036192216 0.11665303 -0.10127918 -0.1348336
-0.055976152 0.1100261 0.116373934 -0.06643266 -0.046993416 0.034630094 0.06747162 -0.054812413
0.02341943 -0.04513587 0.0010208351 -0.09152328 -0.015204754 0.04823659 -0.007904855 0.0030548188
0.03767836 -0.010008646 0.063903116 -0.007743454 0.053311683 0.0064721513 -0.10459472 0.060118783
-0.020015392 0.06920973 0.09527802 0.012909566 -0.023005484 0.02798847 0.009375215 -0.070442036
-0.08711289 -0.0045436374 -0.048170656 -0.04200713 0.045762863 0.014762535 -0.09196944 0.073831424
-0.089954115 -0.009953687 0.07697411 -0.090548426 -0.007914995 0.07930817 -0.03943506 0.09216957
0.08674562 -0.055620242 0.052571155 0.008982743 -0.008648388 0.042396728 0.029520174 0.10375847
-0.08177327 0.068481475 0.06375605 0.046161067 -0.019408604 -0.0413331 0.01408848 0.076693036
00000000: 67e4 853d 7643 d9ba d3d4 66b9 b20e 883d
00000010: 3b61 3abc bfc2 a73b a6c5 fbbd a7d5 e5bd
00000020: 808e c3bc 7a59 743d 8dba b6bc e99a d23d
00000030: 2d09 be3d a8c7 fabd c3eb b7bc d317 09bd
00000040: 1769 ccba 9d9d 9cbd d281 8b3d 0812 5b3d
00000050: bb69 31bd 649e a43d ffd0 94bc 0b80 713d
00000060: 473e fa3d eab2 c13d 62d9 343d 8ee4 173d
00000070: ac51 80ba 23d1 94bd 821e 123d 31fe d1bd
00000080: 0894 97bd 9643 0b3e c0a9 0d3d 5853 a93d
00000090: 427c 20bd 775b 8cbd 766f babd e615 65bc
000000a0: c8aa e0bd a19b 08be 14cb 9dbc 350b 913d
000000b0: eb96 b03d 2dbc 3ebd 0981 9c3c 6886 dbbd
000000c0: 18f0 653d d194 cdbc fdb1 a4bd ebcb 1a3c
000000d0: 988a ff3d 5d93 9ebd 1d01 8cbd 236c 8ebc
000000e0: 16dd d1bc 6e93 a63d 4bcd ecbc bfbe c5bc
000000f0: a215 3a3d 5748 5a3d b58b a9bd af0c cc3d
00000100: ea65 613a 3297 023d c2ce 483d 2ed2 dc3b
00000110: c8b1 c9bd f019 35bd d9ad 843d 2dda 2c3d
00000120: ed1d 8e3d eec6 3a3b 687d 6dbc 344c 823c
00000130: bae7 9cbd 9fac 633d 6b46 253d 2491 d0bd
00000140: 8143 353d 5055 293c c78d 7c3d dfa0 eebd
00000150: 995a 9cbd b06c eebd b25f 993d 79cc 86bd
00000160: 07fd 95bb ea46 433d b6cd dabd dcab d83c
00000170: 6743 edbc 613d b2bd d0b1 003e 15f6 893c
00000180: feca 5cbd 74cd 24bc 7a95 9a3c a220 063e
00000190: 8191 d7bc bde1 aebb df7c 18bd a83b d93c
000001a0: d6e9 dcbd 942a 27bc 6719 6fbb b7c1 123d
000001b0: 8d00 5bbd fbd4 fbbd b57e f3bd 2aea a1bc
000001c0: 11d2 a7bd f23d d53d 464f d3bc 447f 3abd
000001d0: a4ec 6abc a972 9fbd d401 00bd 61a6 a63d
000001e0: 4165 a0bd ac88 a6bd a046 e43c bbb0 aabc
000001f0: 9657 6a3c 806f 803b 7f02 363d a582 64bc
00000200: f9ea 18bd 663c 61bd 17f9 34be 9579 323c
00000210: b68d 45bd b5f3 78bc 3ed4 61ba b3f4 c83d
00000220: 0840 9abd fa16 683d d9aa 823d 32f1 a43d
00000230: 1ee1 e03d 316a 22be b7bd da3b 9e47 383d
00000240: 917b 9a3c 78ef ccbd 93ff 79bd 3fd6 9bbd
00000250: 449f 103e 4826 1d3b 19b8 ecbd 3f95 443d
00000260: 0480 dcbc ccc4 4db9 f1d0 ee3d d998 92bd
00000270: 4bfa a5bd e60d 67bd 33f5 ab3c 9cfd d5bc
00000280: 918d 133d b3f4 78bd 9098 613d 8fcd acbd
00000290: 6578 c93d 9ecf b1bc 24e8 d93d 5031 81bc
000002a0: 3b18 013d 3a38 c5bd b249 91bd 34f8 d43c
000002b0: 2efd 10bd 8bb7 bf3d 7fed c03d 7103 31bd
000002c0: 9436 9ebd 6f7c 88bd bd3e 6bbb d9bd babd
000002d0: 867a 99ba 9c23 edbd 1593 fb3c 0262 543d
000002e0: e470 363c 46dd 8b3d f98d 62bd 6a1f 853c
000002f0: 4a3e 143d c9e7 ee3d 756b cfbd d211 0abe
00000300: 4047 65bd 5d55 e13d 7555 ee3d d90d 88bd
00000310: 2b7c 40bd 49d8 0d3d 902e 8a3d fb82 60bd
00000320: 1bda bf3c 64e0 38bd 8bcd 853a 8f70 bbbd
00000330: 5c1d 79bc bb93 453d 5d83 01bc 5b33 483b
00000340: a054 1a3d 4efb 23bc a3df 823d cdbc fdbb
00000350: 5a5d 5a3d 5714 d43b c235 d6bd 1d3f 763d
00000360: 52f7 a3bc d5bd 8d3d 1f21 c33d a582 533c
00000370: ff75 bcbc 1348 e53c 809a 193c ea43 90bd
00000380: 3e68 b2bd cbe2 94bb 984e 45bd ab0f 2cbd
00000390: d771 3b3d 8fde 713c 795a bcbd ee34 973d
000003a0: dd39 b8bd ca14 23bc 9aa4 9d3d 7471 b9bd
000003b0: e5ad 01bc 526c a23d a886 21bd 66c3 bc3d
000003c0: b0a7 b13d 0dd2 63bd da54 573d 5b2c 133c
000003d0: f8b1 0dbc 31a8 2d3d 4bd4 f13c 527f d43d
000003e0: bf78 a7bd 0440 8c3d 8892 823d 6313 3d3d
000003f0: cbfe 9ebc e64c 29bd 5ed3 663c 3d11 9d3d

net.2.bias f4 [256]
-0.036665943 -0.001881273 0.03722944 -0.038636573 -0.055753797 -0.022108871 0.01545719 0.040278375
0.005659238 0.014160084 0.032622676 0.005065473 -0.0418399 0.0096344035 -0.013731257 -0.039450083
-0.013518421 -0.04908339 -0.007058585 -0.012075154 0.006124084 -0.008804349 -0.06690385 -0.016136244
-0.020925552 0.020276332 -0.0054725143 -0.032932773 -0.028007323 -0.021588014 -0.004656227 0.00012914391
-0.063682325 -0.0048592645 0.040864095 0.016965088 0.016790513 -0.013801017 0.013520753 0.07672657
-0.05811575 -0.024246493 0.07662931 0.018675297 0.015535702 0.013110805 0.028221697 -0.0015029848
-0.07093831 -0.002407667 -0.048080966 -0.0232762 0.017822355 -0.00052323076 -0.0256647 0.000788604
-0.0072257537 0.050309528 0.054568604 -0.019408315 -0.0038922282 0.008712571 -0.028863192 0.05874454
-0.0465053 0.0003065155 -0.015576814 0.013525922 -0.009706528 0.003976593 -0.020331325 -0.063613005
-0.07397165 -0.004770708 -0.037885915 -0.06248138 -0.00634866 -0.03413141 0.003973091 -0.037065495
0.048586745 -0.052356217 -0.027714381 -0.04121803 -0.022763398 0.050530262 -0.026798995 0.027419241
-0.09183825 0.0006804858 0.019589733 -0.029601771 -0.03443593 -0.0029642135 0.038630243 0.0020596774
-0.03447871 -0.0026401952 0.03604001 -0.005303382 -0.025053734 -0.008419649 -0.04224797 0.050132673
0.019161496 0.000843817 -0.034986332 -0.028677233 -0.0109486375 -0.006294953 -0.010304437 -0.048913494
-0.03434677 -0.05105633 -0.035711724 -0.00403781 0.061518613 -0.01743787 -0.025877848 0.013130436
-0.018378384 -0.0026278265 -0.042928617 -0.0033603867 0.05212112 0.012185965 -0.010596585 -0.048128307
0.020632504 0.015130917 -0.020734653 -0.087477855 -0.045282215 -0.018734401 -0.08026381 -0.010842088
0.0027985848 -0.062087756 -0.03679907 0.005414604 0.004257304 0.004952418 -0.030574843 -0.036502138
-0.018333739 0.025131814 -0.043940544 0.008677684 -0.027386658 -0.02122688 0.014420518 -0.04238418
0.06254174 -0.0022156928 -0.03089852 -0.1081584 -0.010175315 -0.0010892792 0.015633574 -0.002333983
0.011831566 -0.021792555 -0.029044235 -0.021649702 -0.0020539667 -0.006224052 -0.01638842 0.01978253
-0.03808645 -0.021064172 -0.01728228 -0.031245785 -0.009276038 -0.008335207 -0.021582987 0.000102022816
0.034605864 -0.027374769 0.082016125 -0.0020647715 0.011279603 -0.0035336944 -0.040041838 0.032181866
-0.0020507623 -0.05296736 0.02445625 0.008362739 0.011647051 0.036065485 -0.06701498 0.016076269
-0.08797354 0.028044675 -0.03018026 0.019177195 0.001775018 0.097343564 -0.041961934 -0.012369622
0.042996954 -0.054575577 -2.3325623e-05 -0.012406006 -0.049725406 -0.025705185 -0.05712238 -0.023689128
-0.039550122 0.038261514 -0.08232764 -0.034856595 -0.059655845 -0.0034672532 -0.055900402 0.015922615
-0.06255296 -0.005597992 0.0033939474 -0.08707908 0.013775493 -0.015490452 0.039598364 -0.014533959
0.028724726 0.005361226 0.0005188221 -0.017607162 -0.034966007 -0.005176239 -0.010565628 -0.019399554
-0.044071645 0.0031164188 -0.006258921 -0.0010352345 -0.033257943 -0.009092405 -0.07227559 -0.042462636
-0.027462142 -0.034264937 -0.016699933 -0.098743 -0.002595912 0.02428907 -0.021809975 -0.04982406
-0.017878644 -0.052105375 -0.030448465 -0.038236137 -0.04902726 -0.045358166 0.0064714993 -0.033843584
00000000: 072f 16bd 0c95 f6ba e67d 183d 6241 1ebd
00000010: 185e 64bd aa1d b5bc 2740 7d3c f0fa 243d
00000020: 2171 b93b b2ff 673c 5b9f 053d 44fc a53b
00000030: 5160 2bbd 9ed9 1d3c 11f9 60bc 6996 21bd
00000040: 5e7c 5dbc aa0b 49bd b44b e7bb ded6 45bc
00000050: 8aac c83b 1e40 10bc e304 89bd 2830 84bc
00000060: 106c abbc 8d1a a63c c752 b3bb 84e4 06bd
00000070: 9d6f e5bc 59d9 b0bc 4393 98bb ce6a 0739
00000080: e16b 82bd 773a 9fbb 1c61 273d 5efa 8a3c
00000090: 428c 893c a91d 62bc 2686 5d3c d222 9d3d
000000a0: c80a 6ebd 95a0 c6bc d4ef 9c3d f0fc 983c
000000b0: 7589 7e3c b4ce 563c 3031 e73c cdff c4ba
000000c0: 1b48 91bd f3c9 1dbb 8cf0 44bd bbad bebc
000000d0: 3000 923c 6c29 09ba c73e d2bc 52ba 4e3a
000000e0: 04c6 ecbb 5d11 4e3d 5483 5f3d 30fe 9ebc
000000f0: c114 7fbb 2cbf 0e3c 8072 ecbc 1d9e 703d
00000100: 577c 3ebd d0b3 a039 e535 7fbc d49b 5d3c
00000110: 2108 1fbc 144e 823b e18d a6bc 8947 82bd
00000120: 737e 97bd 9953 9cbb 432e 1bbd 7aec 7fbd
00000130: 6c08 d0bb 61cd 0bbd b430 823b fdd1 17bd
00000140: e502 473d 7973 56bd 4509 e3bc 3dd4 28bd
00000150: 4e7a babc d2f8 4e3d 9189 dbbc 519e e03c
00000160: b115 bcbd a162 323a a67a a03c 6a7f f2bc
00000170: b10c 0dbd 4043 42bb bf3a 1e3d a7fb 063b
00000180: 8c39 0dbd 2007 2dbb b19e 133d fec7 adbb
00000190: 7d3d cdbc 91f2 09bc 350c 2dbd eb57 4d3d
000001a0: 92f8 9c3c 9a33 5d3a d44d 0fbd 84ec eabc
000001b0: ea61 33bc e545 cebb f1d3 28bc 8459 48bd
000001c0: 33af 0cbd 7120 51bd 7546 12bd 9b4f 84bb
000001d0: f1fa 7b3d ddd9 8ebc c8fd d3bc 0a21 573c
000001e0: 448e 96bc 9d37 2cbb ebd5 2fbd ef39 5cbb
000001f0: f57c 553d a4a7 473c 4d9d 2dbc 3022 45bd
00000200: 7f05 a93c aae7 773c b8db a9bc 9727 b3bd
00000210: d879 39bd e378 99bc 5a61 a4bd 03a3 31bc
00000220: 7668 373b bb4f 7ebd 9fba 16bd fe6c b13b
00000230: db80 8b3b e547 a23b 1878 fabc 4483 15bd
00000240: a330 96bc 3ce1 cd3c 00fb 33bd d82c 0e3c
00000250: fc59 e0bc fee3 adbc 0944 6c3c 099b 2dbd
00000260: e215 803d 2835 11bb e51e fdbc 2782 ddbd
00000270: 5db6 26bc 25c6 8eba fb11 803c bdf5 18bb
00000280: 2fd9 413c 4d86 b2bc 2dee edbc b75a b1bc
00000290: d89b 06bb 22f3 cbbb 0241 86bc f90e a23c
000002a0: 8a00 1cbd c58e acbc 9193 8dbc 29f7 ffbc
000002b0: 86fa 17bc 6490 08bc cece b0bc 15f5 d538
000002c0: e1be 0d3d 0d41 e0bc 12f8 a73d 1e51 07bb
000002d0: 15ce 383c 8e95 67bb e902 24bd 22d1 033d
000002e0: 1566 06bb 4df4 58bd 7958 c83c df03 093c
000002f0: 46d3 3e3c 67b9 133d 263f 89bd 61b2 833c
00000300: 792b b4bd f2bd e53c 983c f7bc 7e19 9d3c
00000310: b9a7 e83a 105c c73d 47e0 2bbd f4a9 4abc
00000320: 931d 303d a48a 5fbd 65ab c3b7 9042 4bbc
00000330: deac 4bbd ae93 d2bc 28f9 69bd b40f c2bc
00000340: 4fff 21bd 1bb8 1c3d 659b a8bd cac5 0ebd
00000350: b059 74bd db3a 63bb d2f7 64bd 2570 823c
00000360: c41b 80bd 5c6f b7bb fd6c 5e3b 8456 b2bd
00000370: 9bb2 613c aacb 7dbc e531 223d d81f 6ebc
00000380: 1e50 eb3c 39ad af3b 9001 083a e53c 90bc
00000390: 8438 0fbd 719d a9bb 751b 2dbc d0eb 9ebc
000003a0: 7884 34bd d53c 4c3b a317 cdbb b5b0 87ba
000003b0: 7b39 08bd 50f8 14bc 3905 94bd 4ded 2dbd
000003c0: 49f8 e0bc 6459 0cbd 4cce 88bc c539 cabd
000003d0: 2d20 2abb dff9 c63c d5aa b2bc 5014 4cbd
000003e0: 3c76 92bc 726c 55bd 0f6f f9bc 7f9d 1cbd
000003f0: cfd0 48bd 7cc9 39bd df0e d43b 929f 0abd

net.last_linear.weight f4 [4, 256]
-0.10699726 -0.06846182 -0.06992017 0.10163195 -0.100499205 -0.18588355 0.013563826 0.09758662
0.33111903 -0.1504859 -0.16431656 -0.10088911 -0.044535216 -0.1507225 -0.17669138 0.028030287
0.1271193 0.13117336 -0.14870453 0.16245285 0.18282974 0.12413124 -0.10713391 0.13684629
0.07439149 -0.17919694 -0.09381501 -0.043161955 0.11556837 0.065210275 -0.01921208 -0.09993373
0.15888594 -0.15364608 -0.10603889 -0.19715475 0.09266857 -0.1223585 -0.1646346 0.0059338743
0.14272597 -0.1987953 -0.016130406 -0.15285172 0.16992527 -0.12816419 -0.012012038 0.07679775
0.1122817 0.13615124 0.1483738 0.09191036 0.084747985 0.14416063 0.18551399 0.13994548
0.010611583 -0.06746107 -0.077086866 0.15116668 0.10533427 -0.12494039 0.03388483 -0.1530916
-0.10530085 -0.07748026 0.1701464 -0.015943505 -0.08872822 0.20953448 -0.021948695 0.16598259
0.05477505 -0.1505992 -0.05930739 0.16584784 -0.112636924 0.099267155 0.06663637 0.25341505
0.08196068 0.10308971 -0.14073436 0.16880283 -0.060592096 0.09143365 -0.034421556 -0.09950757
-0.033908226 -0.12590459 -0.15227392 -0.08562594 -0.23517281 -0.15623528 -0.015173692 -0.14066558
0.046287756 -0.16243677 0.098075286 0.22343875 -0.060267966 0.19344318 -0.113230675 0.088300504
-0.14850846 -0.062082436 -0.24224126 0.051879708 -0.16009964 0.10152872 0.14561923 0.1117947
0.109586895 0.048980277 0.07919744 0.11432467 0.06737475 -0.1937193 0.009545239 -0.15356591
-0.07401087 -0.08415034 -0.18067966 0.10700651 0.26848817 -0.09153003 -0.09248939 -0.006441934
-0.07777229 -0.064143464 0.11198966 0.10481206 0.08046365 -0.15881515 0.1724699 0.038300425
-0.12917814 -0.067250974 -0.08092884 0.14004718 0.10565678 0.18777025 0.16707437 -0.23143521
0.09213632 -0.2296568 -0.061291877 -0.15946221 0.12972058 -0.11350873 -0.17347978 -0.0012356656
-0.09885262 -0.056455906 -0.118923075 0.009238535 -0.08219233 -0.15155602 -0.104724094 -0.104000576
-0.14910422 0.023307472 0.19450209 0.12363171 0.087840386 0.22683263 0.1262913 0.088234544
0.11542863 0.051538598 0.13861194 0.17390883 0.106948085 -0.0068583577 0.12856707 0.030924652
0.11665527 0.20045552 -0.032327652 0.0994517 0.1392908 0.06314188 -0.07970999 -0.10114382
-0.076491885 0.14061576 0.12462957 0.09221357 0.17459281 -0.16049846 0.05978776 -0.11788518
0.09994324 -0.0036461223 0.02667883 0.03857577 -0.21446188 -0.008143385 0.2450558 -0.034147605
0.091528855 0.05744328 0.04691784 0.15140325 0.06409509 0.08316469 -0.27442595 0.0023777871
-0.15898648 0.17916721 -0.042825375 -0.12698717 0.07210563 -0.15191443 0.13282298 -0.20491774
0.05269845 -0.197256 -0.09374154 0.04286531 -0.09712188 0.22746788 0.0031269738 0.20100166
-0.13427815 -0.20804377 -0.09776687 0.05289149 0.111441664 0.10921576 -0.18310305 -0.054274194
0.23923062 0.08899714 0.099156946 0.19100077 0.09993659 -0.07727577 -0.196864 -0.024385158
-0.0434713 0.16306274 0.031914596 -0.033370413 0.011648608 -0.20597929 -0.007828395 -0.07098688
-0.019089703 -0.011966177 0.025803665 0.16942324 0.038357876 0.037441 -0.18141134 0.1356317
00000000: 6121 dbbd b635 8cbd 4e32 8fbd 6924 d03d
00000010: 87d2 cdbd 4258 3ebe cf3a 5e3c 7edb c73d
00000020: 6f88 a93e fa18 1abe 9a42 28be f39e cebd
00000030: 8f6a 36bd 0057 1abe 96ee 34be c69f e53c
00000040: 902b 023e 4f52 063e 0046 18be 0a5a 263e
00000050: b837 3b3e 8538 fe3d 0669 dbbd 6f21 0c3e
00000060: 915a 983d 677f 37be 1522 c0bd 97ca 30bd
00000070: 1caf ec3d f78c 853d a762 9dbc 0eaa ccbd
00000080: ffb2 223e 6655 1dbe eb2a d9bd efe2 49be
00000090: 05c9 bd3d 1897 fabd f995 28be f270 c23b
000000a0: c226 123e ff90 4bbe ea23 84bc 2985 1cbe
000000b0: e400 2e3e 793d 03be 24ce 44bc 2448 9d3d
000000c0: f3f3 e53d 3b6b 0b3e 4def 173e 803b bc3d
000000d0: 5a90 ad3d d89e 133e 61f7 3d3e de4d 0f3e
000000e0: 34dc 2d3c 0829 8abd b8df 9dbd 70cb 1a3e
000000f0: 7eb9 d73d bfe0 ffbd d2ca 0a3d 0bc4 1cbe
00000100: f9a7 d7bd f8ad 9ebd dc3a 2e3e f49b 82bc
00000110: 24b7 b5bd 3590 563e c0cd b3bc 57f7 293e
00000120: ce5b 603d ad36 1abe 4eec 72bd 04d4 293e
00000130: 30ae e6bd 944c cb3d a678 883d 9ebf 813e
00000140: 00db a73d b320 d33d ab1c 10be a6da 2c3e
00000150: 6b2f 78bd 9141 bb3d 9efd 0cbd a0ca cbbd
00000160: 5ae3 0abd 22ed 00be b2ed 1bbe a75c afbd
00000170: 24d1 70be 24fc 1fbe 149b 78bc a30a 10be
00000180: 3b98 3d3d d355 26be b2db c83d 21cd 643e
00000190: 8bdb 76bd f815 463e 7ce5 e7bd e5d6 b43d
000001a0: 9a12 18be 274a 7ebd 180e 78be d17f 543d
000001b0: 29f1 23be 4aee cf3d 351d 153e 9ff4 e43d
000001c0: 186f e03d 8b9f 483d 4432 a23d 0d23 ea3d
000001d0: c6fb 893d 5a5e 46be a263 1c3c 6240 1dbe
000001e0: 0393 97bd 0357 acbd 1704 39be 3b26 db3d
000001f0: 4877 893e 1974 bbbd 146b bdbd dc16 d3bb
00000200: 1447 9fbd a65d 83bd d65a e53d b5a7 d63d
00000210: 20ca a43d 70a0 22be f39b 303e e8e0 1c3d
00000220: 4647 04be e1ba 89bd 05be a5bd 8768 0f3e
00000230: 9562 d83d d846 403e 8b15 2b3e 5afd 6cbe
00000240: f8b1 bc3d 272b 6bbe 310d 7bbd 104a 23be
00000250: 79d5 043e 4477 e8bd afa4 31be 0ff6 a1ba
00000260: 3e73 cabd 4f3e 67bd f18d f3bd 395d 173c
00000270: 7454 a8bd 8031 1bbe 9679 d6bd 41fe d4bd
00000280: c7ae 18be 50ef be3c 8e2b 473e 9f32 fd3d
00000290: a9e5 b33d d046 683e 8252 013e 50b4 b43d
000002a0: d865 ec3d 231a 533d 4af0 0d3e 2815 323e
000002b0: 9907 db3d 13bc e0bb 16a7 033e b255 fd3c
000002c0: f5e8 ee3d 3644 4d3e 006a 04bd 55ad cb3d
000002d0: 3fa2 0e3e 8850 813d fe3e a3bd 7e24 cfbd
000002e0: c7a7 9cbd 94fd 0f3e ca3d ff3d 78da bc3d
000002f0: 75c8 323e b559 24be 03e4 743d c96d f1bd
00000300: 0baf cc3d c8f3 6ebb 908d da3c a001 1e3d
00000310: e59b 5bbe d56b 05bc e8ef 7a3e 5cde 0bbd
00000320: 7b73 bb3d a549 6b3d ec2c 403d 7409 1b3e
00000330: 4944 833d 4052 aa3d 8f81 8cbe a6d4 1b3b
00000340: 5acd 22be 9c77 373e a969 2fbd ed08 02be
00000350: 1eac 933d 758f 1bbe bf02 083e f5d5 51be
00000360: 54da 573d 7afd 49be 91fb bfbd 8993 2f3d
00000370: d6e7 c6bd 57ed 683e eaed 4c3b 61d3 4d3e
00000380: 3680 09be 6d09 55be ff39 c8bd bfa4 583d
00000390: 873b e43d 83ac df3d 5e7f 3bbe 9e4e 5ebd
000003a0: dff8 743e 2244 b63d cc12 cb3d b595 433e
000003b0: 8eab cc3d c242 9ebd b796 49be 62c3 c7bc
000003c0: f60e 32bd ebf9 263e e1b8 023d 6aaf 08bd
000003d0: ced9 3e3c 3cec 52be ab42 00bc 9261 91bd
000003e0: 0262 9cbc c90d 44bc 3562 d33c 497d 2d3e
000003f0: 261d 1d3d bc5b 193d e5c3 39be 09e3 0a3e

net.last_linear.bias f4 [4]
-0.012763285 0.012468379 -0.088485725 -0.11474676
00000000: 191d 51bc 2c48 4c3c 0138 b5bd 5900 ebbd
