models/model_merge/actor.pth (torch, 565191 bytes, 6 tensors)

net.0.weight f4 [256, 288]
000000 dd db 51 bd 5b 47 eb bd 70 61 58 bc b4 9c 9a 3d
       -0.05123507 -0.11488219 -0.013206825 0.0754942
000010 29 31 4b bd 37 82 10 bd fb 91 40 bd 36 1f 89 3c
       -0.04960743 -0.035280433 -0.047014218 0.016738515
000020 78 11 22 bb 14 17 0b 3c b0 a5 8b bd 1e eb 9d 3d
       -0.002472965 0.008489389 -0.06818712 0.07710861
000030 5a 2f 8b 3d 92 43 ea 3c d7 c9 ad 3c c5 b0 a1 bc
       0.06796141 0.028596673 0.021214409 -0.01973761
000040 14 89 0e be 0f eb db 3d 67 bc f7 3c 43 b0 de 3c
       -0.13919479 0.10738193 0.030241204 0.027183658
000050 00 11 e7 3c 45 8a af bd 5c 39 1f bd fb b0 ae bd
       0.028206348 -0.08571295 -0.03887306 -0.0852985
000060 de da 34 bd 98 83 a2 3d a6 97 58 3d f2 06 02 3d
       -0.04415404 0.07935256 0.052879 0.031744905
000070 39 05 15 bc 3b 28 8e bd 16 99 60 bd cd 12 9f bb
       -0.009095483 -0.06941267 -0.054833494 -0.004854536
000080 f6 4c 8c 3d 84 e7 b0 3c 9c 7b 80 3d ac 79 b3 bd
       0.06850617 0.02159477 0.062735766 -0.087634414
000090 29 1d 51 bd c0 d4 4b 3d 0a 4b 4f 3d fa a2 ba 3d
       -0.0510532 0.04976344 0.050608672 0.091131166
0000a0 50 07 7f bd 22 61 2f 3d 21 dc 9f bc c2 59 c3 3c
       -0.062262833 0.042817242 -0.019514145 0.02384651
0000b0 e4 65 d6 bd e1 8e b6 bd 0d bf 78 3c 7b 6c 52 3d
       -0.10468653 -0.08913971 0.015182269 0.051372986
0000c0 23 02 98 bd 37 a8 b7 3b 25 79 3d bd 3f 19 59 3c
       -0.074222825 0.0056047696 -0.04625811 0.013250648
0000d0 40 5e 76 3c 48 07 29 3d bb d0 d0 3d 31 f8 07 bc
       0.015037119 0.04126671 0.10196062 -0.00829892
0000e0 55 6e 67 bd 7d 06 43 bc 84 1b 4c 3d 55 a7 e3 bd
       -0.056501705 -0.011903402 0.04983093 -0.111159004
0000f0 1e 29 1f 3c a1 d5 15 bd 1f 06 be 3d df fd 7d bd
       0.009714393 -0.036580686 0.09278511 -0.06200969
000100 6a 82 4a bd ba 96 fa 3d fb 43 9b bc 12 23 b0 3c
       -0.04944078 0.1223578 -0.018953314 0.021501098
000110 e2 3e 62 bd 6e 50 80 bc 9c f8 b7 3d 0a 0a d8 3c
       -0.05523575 -0.015663352 0.08982965 0.026371974
000120 85 b5 10 3d 27 a1 d8 bd c5 18 b8 3d 66 22 b9 3c
       0.03532936 -0.10577612 0.089890994 0.02259941
000130 72 21 09 3e b2 82 0b bc 56 8e 63 3d 79 ee a9 3c
       0.13391665 -0.008515047 0.055555664 0.020743595
000140 3a 6d 05 bd 96 b6 57 3d 27 02 b0 3d cc 0b 08 3d
       -0.03257487 0.052664362 0.085941605 0.033214375
000150 83 e9 33 bd 95 e2 c4 3d bc 71 99 bd 6a b0 53 3d
       -0.043923866 0.096135296 -0.07492396 0.051681913
000160 e3 22 9c bd b9 d4 d3 39 28 83 bb bd a7 51 04 bd
       -0.076238416 0.00040403547 -0.091558754 -0.032304432
000170 45 ef 81 bc cb 59 a3 bd a2 83 35 bb 5d 2e 51 3c
       -0.015861163 -0.07976111 -0.0027696867 0.0127674015
000180 ee 17 66 bc 0c 88 ba bd 60 4d 63 bd 53 56 b7 3d
       -0.014043791 -0.0910798 -0.055493712 0.08952012
000190 d5 ea 20 bd 59 87 53 bd 76 bf 80 bd 48 29 b5 bd
       -0.039286453 -0.05164275 -0.06286518 -0.088457644
0001a0 76 19 b3 bd c6 b2 9e bd 32 87 ff 3d 06 01 af 3d
       -0.08745091 -0.07748942 0.12476958 0.08545117
0001b0 33 42 53 3c 9b 4c ab 3d 28 f6 ff bc 57 c8 cc bd
       0.012894201 0.08364221 -0.031245306 -0.09999149
0001c0 23 fb 33 3d 98 d3 e7 3d cb db 9d 3c 56 d7 bd bd
       0.043940675 0.11319655 0.019269845 -0.09269588
0001d0 66 96 28 bd 37 ce d4 bd a4 c2 73 3d 74 b3 46 bd
       -0.041159056 -0.10390895 0.059511796 -0.048510984
0001e0 1e 54 c2 bd 3b ce 12 bd 5f 1a 8c 3d c2 ec 02 bc
       -0.094887 -0.035841208 0.068409674 -0.007991018
0001f0 72 7c d5 bc 3e 17 cb bc a7 3b 98 3c be 68 37 3d
       -0.026060317 -0.024791356 0.018583132 0.044777624
000200 dd c7 0f 3d 26 2d 14 be 10 e7 60 b9 6f 9c b2 bd
       0.035102714 -0.14470348 -0.00021448382 -0.087212436
000210 0d 2a 28 3c c4 1f b8 bc 2c 34 28 bc 85 bf ee 3c
       0.010263932 -0.022476085 -0.010266345 0.029144058
000220 c8 da 05 be 9b 0c ed 3c f9 47 90 bd 8f d6 60 3c
       -0.1307174 0.028936675 -0.07044978 0.01372303
000230 b1 0d 21 3d 00 11 24 bd 66 ba 92 3c fb 53 4c bd
       0.039319698 -0.040055275 0.017911147 -0.049884778
000240 18 e1 c0 bd ac b1 5d bd 99 0a 85 3b 7a d7 d6 bd
       -0.09417933 -0.05412452 0.004060101 -0.10490318
000250 a8 6d 8b bc 1c ba 3d 3d ff bb 44 bd d2 28 99 bd
       -0.017020062 0.046320066 -0.04803085 -0.07478489
000260 59 e2 7d bd 62 3d eb bd 5d 4c a4 bd 66 e2 15 bd
       -0.06198344 -0.11486317 -0.08022378 -0.036592864
000270 ee 95 f3 3d b8 3c f2 bd 8e 1f 75 bd b0 25 71 bd
       0.11893831 -0.118279874 -0.059844546 -0.058873832
000280 bb 9f ed bd 9e 75 8b 3d 2b 8f 1b bc 52 61 01 3e
       -0.11602732 0.06809543 -0.009494583 0.12634781
000290 ce 5e 07 bd df 81 19 3d fe 8a 75 ba 6c 20 90 3d
       -0.033049397 0.03747737 -0.000936672 0.07037434
0002a0 a6 60 bd bd bb 41 15 be c5 2b 81 3d 96 35 8e 3c
       -0.0924695 -0.14575855 0.063071765 0.017359536
0002b0 c2 71 98 bc 8f ed 1a be e3 d4 ae bd 73 b7 46 bb
       -0.018608931 -0.15129684 -0.08536699 -0.0030321747
0002c0 f6 68 7f 3d e8 0e c5 bd ae a6 a0 bd e8 73 b4 3d
       0.062355958 -0.09621984 -0.078442916 0.0881117
0002d0 96 a4 b6 3d c7 67 d2 3d b4 43 1c 3c 8f e2 e4 bc
       0.08918111 0.102737 0.009537626 -0.027940063
0002e0 14 78 d9 3d 8a b2 99 3d 16 07 96 bd a4 35 0f 3c
       0.10618606 0.07504757 -0.0732557 0.008740816
0002f0 a6 c5 a7 3d 6d 89 b7 3d 2e eb 24 3d fd 5f 06 bd
       0.08191995 0.08961759 0.040263347 -0.032806385
000300 69 de 19 bd ed 1a 77 bd 43 c6 7b 3d 23 92 64 3c
       -0.037565622 -0.060328413 0.061468374 0.013950857
000310 10 9c 4c 3d c1 49 a4 bd d0 92 a8 3b d8 d0 12 3e
       0.04995352 -0.0802188 0.0051444545 0.1433748
000320 e3 b3 a6 3d f7 ac 51 3c 7c 29 91 bd fc c2 21 3d
       0.081397794 0.012797586 -0.07087991 0.039492592
000330 39 e9 14 bd 2e 3c 0a bc 69 6e 97 bd 01 3f d4 bc
       -0.03635523 -0.0084371995 -0.07394106 -0.025908949
000340 2c d1 c6 bc ed 01 94 3d 9a 62 ce bd c9 84 8e 3d
       -0.024269663 0.0722693 -0.100774005 0.069589205
000350 87 b0 ee 3b 46 62 c2 3d ea e8 9e bd f7 8e 67 3d
       0.0072842273 0.094914004 -0.077592686 0.056532826
000360 54 5e b8 bd 4c e9 9d 3d f1 e9 b3 3d d1 ce 73 3d
       -0.09002367 0.077105135 0.08784855 0.059523407
000370 be c3 1b bd 6e 90 5a 3d 94 75 5b 3d b2 38 b9 3c
       -0.03802847 0.053360395 0.053578928 0.022610042
000380 32 0a 21 3d f1 b5 a4 3d ac 98 1a 3d ee 4e 87 bd
       0.039316364 0.08042515 0.037743255 -0.066068515
000390 55 25 17 3b 3d aa 0c 3d 2e 2b 55 3d 67 d3 eb bc
       0.0023063023 0.03434204 0.052043132 -0.028787328
0003a0 bc 5d d0 3d d6 54 14 3d 68 1a 03 bd 35 85 2e be
       0.101741284 0.03621372 -0.032007605 -0.17043002
0003b0 b7 30 34 3c 0f eb 6e 3d 7c 4a 17 bd 7c 4f a7 bd
       0.010997943 0.058329638 -0.03693627 -0.08169457
0003c0 d7 10 20 3e e3 f1 1a bd 4b 35 87 bd 80 b1 c8 3c
       0.15631424 -0.037828337 -0.06601962 0.024498701
0003d0 c0 61 c1 3d 12 e8 1f 3b ec d7 9c 3b 7b e0 29 bd
       0.094424725 0.00243998 0.004786482 -0.041473847
0003e0 49 7e 65 3c c8 7b 10 3e 8f 5d 78 3d a7 0e 0a bd
       0.0140071595 0.14109719 0.0606361 -0.03370538
0003f0 e8 f4 91 bd bc 9f 72 bd c4 e3 c4 3d 8e 3d 3f bd
       -0.0712679 -0.059234366 0.09613755 -0.046689562

net.0.bias f4 [256]
000000 3f 57 05 bd 5f d8 0b bd 2b d3 c3 bc dc bc 79 bc
       -0.032553907 -0.034141894 -0.023904404 -0.0152427815
000010 ae 4a 08 bd fd 65 9f bc 79 ed b7 bc 2c c2 2d bc
       -0.033274345 -0.019457811 -0.022452103 -0.010605376
000020 81 36 ca 3b 9b 2b 8c bb 65 d7 87 bc 4f f8 96 bc
       0.006171048 -0.004277659 -0.0165822 -0.01842895
000030 a6 f9 e6 bb ae 54 ba bc 61 e8 5d bd ce 8d 17 bd
       -0.0070488034 -0.022745457 -0.054176692 -0.03700047
000040 cc ce 2b bd 6a 79 df bc 42 f8 45 3a 96 53 3a bc
       -0.041945264 -0.027279574 0.0007551947 -0.0113724675
000050 dd 09 8c bb ed d1 a8 bc c2 d9 b4 bc 70 63 93 bc
       -0.0042736367 -0.020607913 -0.022076491 -0.017991751
000060 71 ae c6 bc b9 9b fd bc 88 dc dd bc 49 64 48 bc
       -0.024253102 -0.030958043 -0.027082697 -0.012230941
000070 d8 ed 8f bc 17 9c c7 bc 0f fa 9d bc 16 c1 7f bb
       -0.017569467 -0.024366422 -0.019284276 -0.0039025
000080 17 b2 ac bc 9a 54 30 bd e7 be 89 3c cf 1d 10 bd
       -0.021081014 -0.043049432 0.016814662 -0.035184678
000090 d5 fa de bc 27 d1 9b bc da 7b d4 bc bf 41 14 bd
       -0.027219215 -0.01902063 -0.025937963 -0.036195513
0000a0 d9 47 00 bd d4 6f 1f bc e4 95 0b bd ab 53 3c bd
       -0.03131852 -0.009731252 -0.034078494 -0.04597823
0000b0 d6 40 8c bc b3 be 21 bc 9c 9e 40 bd 57 8b f4 bc
       -0.01712076 -0.009872126 -0.04702626 -0.029851599
0000c0 c4 0c 29 bd 99 a3 36 bc e1 50 35 bc 09 cb 6f bd
       -0.04127194 -0.011147403 -0.011066646 -0.05854324
0000d0 86 e5 b3 bc 99 14 df bc 01 40 70 bc 64 b0 b9 3b
       -0.021960031 -0.027231501 -0.014663697 0.0056667794
0000e0 37 f1 3a bc da d5 90 bc 7b 76 81 bc 26 ae 9e bc
       -0.011410049 -0.017680097 -0.015803566 -0.01937015
0000f0 85 07 94 bc 4e 0c d3 bc 19 ba 2d bc 2c 73 3f bd
       -0.018069992 -0.025762703 -0.010603451 -0.046740696
000100 3a a9 e5 bc 07 48 e2 bc c1 d6 17 bd 9e a8 1c bc
       -0.028034795 -0.027622236 -0.03707004 -0.009561686
000110 82 7e d8 bc e0 9d 1d bd 18 a9 0f bc 0b f1 f7 bc
       -0.026427511 -0.03848064 -0.008768342 -0.030266305
000120 11 2e c7 bc ac d6 12 bc 58 18 10 bd bb 41 75 bc
       -0.024313958 -0.008962315 -0.035179466 -0.014969285
000130 52 5d 77 bc c6 05 52 bc cd a1 33 bc a6 e6 f4 3b
       -0.015097933 -0.012818759 -0.010963869 0.0074737845
000140 ad a1 a6 bc cc 48 50 bd 04 ff cc bc 6f 00 d6 bc
       -0.020340765 -0.050850675 -0.025023945 -0.026123254
000150 96 df ed bc b8 5e 13 bd 85 55 91 bc ed 25 a4 bc
       -0.029037278 -0.035979003 -0.017740974 -0.020037616
000160 b4 a7 0c bd 86 1c 71 bc 91 77 96 bc 25 e0 ba bc
       -0.03433962 -0.014716273 -0.01836756 -0.022811959
000170 06 58 03 bd f8 d0 5d bc ce 60 57 bb 5a f1 86 bc
       -0.032066368 -0.013538592 -0.0032864097 -0.016472507
000180 99 c5 a6 bc e7 b3 52 bc b0 dd 80 bc a6 40 00 3c
       -0.020357894 -0.012860275 -0.015730709 0.007827913
000190 18 4a fe bc b9 60 0b bd 5a 12 80 bc 9a 71 5c bd
       -0.03104119 -0.03402779 -0.01563375 -0.053819276
0001a0 02 41 0d bd 88 60 91 bc 5c 40 65 bb 75 36 92 bb
       -0.034485824 -0.017746225 -0.0034980988 -0.004462058
0001b0 07 87 ba bc 07 1c 02 3c b6 77 1d bd 9d 59 be bc
       -0.022769464 0.007941253 -0.038444243 -0.02323609
0001c0 09 b8 07 bb 75 0e e5 bc f0 ac 3f bc 0a 09 fb bc
       -0.0020709059 -0.027960995 -0.011698946 -0.030643959
0001d0 78 d3 48 bc f1 e5 c0 3b 60 18 0e bd a3 71 0a bd
       -0.012257449 0.005886786 -0.034691215 -0.03379978
0001e0 c3 a3 04 bd 30 94 d0 bc 5e 5f 20 bd 6d 0b 83 bc
       -0.032382738 -0.025461286 -0.03915345 -0.01599666
0001f0 39 9e 62 3c 75 be 24 bd 3e e7 80 bc e7 94 52 bc
       0.0138316685 -0.040220696 -0.015735265 -0.012852884
000200 ce 3f dc bc e4 8d 23 bd 32 a5 de bc 19 4f 95 bc
       -0.026885893 -0.03993024 -0.02717838 -0.018226193
000210 63 dc d1 bb a5 60 9e bc 06 12 e1 bc 6d ce ae bb
       -0.006404446 -0.019333193 -0.027474415 -0.0053346665
000220 d3 b2 f4 bc 9e a4 09 bd a0 9e 37 3c f2 8f 05 bd
       -0.029870426 -0.033604257 0.011207253 -0.03260798
000230 8e 3e ec bc eb b5 d8 bb 52 49 3f bc 29 ef 52 bc
       -0.028838422 -0.006613483 -0.011675196 -0.012874403
000240 83 22 f4 bc e8 43 85 bc ef 49 07 bd 17 c5 c1 bc
       -0.029801613 -0.016267732 -0.033029493 -0.02365355
000250 35 47 8c bc ce 5b 3f b9 78 d9 2c bd 7e cc 6d bc
       -0.017123798 -0.0001824938 -0.04219958 -0.014514087
000260 7a 0e 8c bb 47 5a 83 bc 97 3b f4 bc 71 c3 44 bc
       -0.0042741867 -0.016034259 -0.02981357 -0.0120094875
000270 fa 2a c8 bc 43 e2 9b bc 50 b7 cf bc f5 c9 f1 bc
       -0.024434555 -0.019028788 -0.025355965 -0.029515246
000280 a2 15 b5 3c ed 3b 43 bd 5f 6c 65 bd ec 4b 54 bc
       0.022105042 -0.04766457 -0.056011554 -0.012957554
000290 c3 46 b0 bc 87 19 8e 3c cf c0 3a bd 1c b5 d6 bc
       -0.021518117 0.017346157 -0.045594033 -0.026209407
0002a0 bb 79 86 bc 0e 8f 19 bd a1 ff 0e bc ff 7a 12 bd
       -0.016415467 -0.037489943 -0.008727939 -0.03576183
0002b0 b9 df b7 bc 0c f4 51 3b e6 0b 74 bb 12 36 fa bc
       -0.022445546 0.0032036332 -0.0037238537 -0.03054336
0002c0 e3 13 de bc b0 b6 c4 bb 02 39 dd bc 77 b6 16 bc
       -0.027109092 -0.0060032234 -0.027004723 -0.009198776
0002d0 ff 3b 29 bd 5c 47 3e 3b 11 63 09 bd df f8 4d bc
       -0.041316982 0.0029034233 -0.033541743 -0.0125715425
0002e0 e9 1f bd bc 60 75 bc bc 45 5c 33 bb 58 85 af bc
       -0.023086505 -0.023005188 -0.002736823 -0.021425888
0002f0 4e 4d 14 bc df 96 be bc 8a 97 86 3c 51 58 55 3b
       -0.009051634 -0.0232653 0.016429681 0.0032553861
000300 63 83 29 bb c2 ed 37 bd 81 4d 43 bd 2b dc 8e bc
       -0.0025865666 -0.044904478 -0.047681335 -0.017438969
000310 25 df a9 bc ba 65 13 bd 89 ab e2 bc 9d 75 22 bc
       -0.020736286 -0.035985686 -0.027669685 -0.0099157365
000320 00 d6 dc bc ef 0f c3 bc 91 91 57 bc f1 57 04 3a
       -0.026957512 -0.023811309 -0.013157264 0.00050485047
000330 d3 d0 47 3c fa 0c 19 bd ce 26 b1 bc 2d 8f b6 bb
       0.012195784 -0.03736589 -0.021624949 -0.005571267
000340 01 1a be bc 07 ac 07 bd c7 76 1c bd d1 61 44 bc
       -0.023205759 -0.033123042 -0.038199212 -0.011986212
000350 da 1e d1 bc e0 94 b7 bc 78 73 3f bd b3 85 6f 3c
       -0.025527406 -0.022409856 -0.04674098 0.014619279
000360 f3 01 b9 bc e4 10 d1 bb 8a 8f 39 bd 24 f6 06 bd
       -0.022583937 -0.0063801873 -0.045302905 -0.03294958
000370 35 f3 80 bc d3 8f b8 bb 33 cd 55 bd e9 ae bb bc
       -0.01574097 -0.0056323796 -0.052197646 -0.022910552
000380 6f 87 d2 bb c4 7f a2 bb 17 0f 98 bc 0c eb 3b bc
       -0.0064248363 -0.0049590785 -0.018561883 -0.011469614
000390 e6 02 3a bd cc b2 88 bb 07 c3 52 bc 6b a3 c2 bb
       -0.04541292 -0.004171705 -0.012863881 -0.005939891
0003a0 d5 60 0a bc 79 8c 91 b9 86 b4 27 bd ab 40 b3 bc
       -0.008445938 -0.00027761215 -0.040943645 -0.021881422
0003b0 3f 19 09 bd 08 23 4a bc ac 7a a4 bc c8 a7 54 bc
       -0.033471342 -0.012337454 -0.020078026 -0.012979455
0003c0 95 e8 66 bc 20 57 f9 bc 61 70 17 bd ff 21 4f bc
       -0.014093538 -0.030437052 -0.036972407 -0.012642383
0003d0 8d 97 ae bc 27 d0 b7 bb e6 56 c5 bc 6c ad 22 bd
       -0.0213125 -0.0056095305 -0.024089288 -0.03971617
0003e0 5d 70 86 bc dc a8 a2 bc e2 2d 35 bd 18 e6 e0 bc
       -0.016411 -0.019855909 -0.04423321 -0.027453467
0003f0 21 d1 8f bc 29 a2 f2 bc 74 66 e6 bc 80 fd 04 bd
       -0.017555775 -0.02961834 -0.028125025 -0.03246832

net.2.weight f4 [256, 256]
000000 03 47 ec 3d 22 63 48 3d ab 6b a3 3c 60 04 02 3e
       0.11536982 0.048922665 0.019948801 0.12696981
000010 05 09 70 3b 14 99 57 bc 6c 1a b3 bd 16 68 4d bd
       0.003662647 -0.013159055 -0.08745274 -0.050148092
000020 70 bd 8e bd 35 de 5f 3d 8f 61 9f bc 41 82 8d 3d
       -0.06969726 0.054655273 -0.0194557 0.069096096
000030 5f 73 a9 3d af b7 34 bd 83 01 9f bd 8f c0 50 3b
       0.082739584 -0.044120487 -0.0776396 0.0031853055
000040 d9 fd 5b bb 92 4d 8e bd e3 27 a0 3d 66 03 17 3d
       -0.0033568053 -0.06948389 0.07820108 0.036868475
000050 3e a3 ac bd df a9 85 3d 4c 36 ad 3d a3 51 8d 3d
       -0.084295735 0.06526541 0.08457622 0.069003366
000060 2e b0 46 3d 09 8d 75 3d 90 31 7f 3d 5f de 90 3d
       0.04850786 0.059948955 0.062303126 0.07073664
000070 18 eb 31 3d 18 6d 06 be f1 ea b9 b9 ca 3b b1 bd
       0.043437093 -0.13127553 -0.00035460995 -0.08653982
000080 09 62 c9 bd cd d4 a3 3d a2 81 61 3d 1e 8b b5 3d
       -0.09833152 0.07999573 0.055055268 0.08864425
000090 52 69 a4 bc a7 ff 6c bd f7 76 a2 bd 57 51 97 bd
       -0.020069752 -0.057860997 -0.07932847 -0.07388561
0000a0 57 68 db bd 70 e1 8a bd ff 34 1b bc ca db 00 3e
       -0.107132606 -0.0678128 -0.0094730845 0.12583843
0000b0 f3 99 31 3c 9e ba fd bc 40 c2 0c 3c 92 ec 9b bd
       0.010839927 -0.030972775 0.008591235 -0.076134816
0000c0 b9 60 93 3d 06 a6 b2 bd bd e3 05 be 73 d3 96 bb
       0.07196183 -0.08723073 -0.13075157 -0.0046028434
0000d0 93 06 82 3d 6e eb 81 bd 00 b7 c3 bc 6b 30 ab bc
       0.0634891 -0.06343733 -0.023890972 -0.02089711
0000e0 63 31 0c bc bf bb c0 3d 91 12 6b bd 4b 40 58 bd
       -0.008556697 0.0941081 -0.057390753 -0.05279569
0000f0 fa fc b8 3a b1 98 1c 3d 4c 4b d4 bd 0b f4 da 3d
       0.0014113479 0.038231555 -0.10365924 0.10691079
000100 4b a2 c6 3d 11 a5 5b 3d d3 55 b0 3c f2 06 ae 3c
       0.09698924 0.053624216 0.0215253 0.021243546
000110 8d ae d2 bd 86 2e 4d bc 8f 1c ad 3d 0c a8 d2 3d
       -0.10287199 -0.012523299 0.08452713 0.10285959
000120 53 73 84 bb bf 1f 85 b9 4c b2 3a 3d 39 f5 b2 3b
       -0.004042068 -0.0002539139 0.045580193 0.0054613617
000130 85 b3 2a be 54 e0 05 3e f9 53 23 3d 75 5f e2 bd
       -0.16670044 0.13073856 0.039875004 -0.11053363
000140 e2 cb 55 3c cc fc 93 3b 55 df bc 3c 79 9d 03 be
       0.013049098 0.0045162197 0.023055712 -0.1285304
000150 89 73 1b bd 94 c3 44 be df 0f ef 3c db 8f b8 bd
       -0.03795198 -0.19215232 0.029182373 -0.09011813
000160 b4 b2 d1 3d 39 d1 36 bc 47 b4 56 bc ef ae 6b 3d
       0.10239163 -0.011158281 -0.013104505 0.057539877
000170 e4 29 51 bc f1 98 ad bd c4 5c fd 3d 59 db 6e 3d
       -0.012766335 -0.08476437 0.12371209 0.058314655
000180 12 25 1c bd 67 4c 70 3d 06 ed f8 bc fb 4e d3 3d
       -0.03812129 0.058666613 -0.03038646 0.10317799
000190 4d e2 87 bd 8c db 02 3d 6b b0 4d bd 76 eb e0 3d
       -0.0663496 0.031947657 -0.050217073 0.109824106
0001a0 ef 24 12 bd 00 8d 5b bd 3d 78 0a bd ee 20 8c 3d
       -0.035679754 -0.053601265 -0.033806074 0.06842218
0001b0 2b 9b ad bd f1 a5 ea bd 61 2b 48 be 58 17 5f bc
       -0.084768616 -0.11457432 -0.19547798 -0.013616405
0001c0 6f cd f7 bd b3 39 65 3d 1a b5 b9 bb 29 78 6f bd
       -0.1209973 0.05596323 -0.005667341 -0.058464203
0001d0 39 89 77 3c d8 f7 a1 bc d3 f4 9e ba 7a 83 b3 3d
       0.0151084 -0.019771501 -0.0012127407 0.087653115
0001e0 69 e2 fb bc 89 49 e7 bd ce ce 08 3c cf 1b 90 bc
       -0.03074761 -0.112933226 0.008350087 -0.017591385
0001f0 24 0d 09 3d 42 77 98 bc 10 ab 85 3d fd 66 1e ba
       0.033459798 -0.018611554 0.06526768 -0.0006042568
000200 59 1e 80 bd 47 1d 0f be 24 55 79 bd 62 d5 3d 3d
       -0.06255788 -0.13976012 -0.060872212 0.046346076
000210 dd 13 80 bd 2c c0 dc 3c 57 3c bb 3d 1b c2 be 3d
       -0.062537886 0.026947103 0.09142368 0.093143664
000220 9e ae ad bd 81 74 7b bc c2 70 44 bb db 0d fe 3c
       -0.08480571 -0.015347601 -0.0029974435 0.031012466
000230 1e 8e 52 3d 7d fd bb bd 4e 78 31 bd 46 63 9a 3d
       0.051405065 -0.091792084 -0.043327622 0.07538466
000240 67 88 a5 3d 63 6a da bd 27 42 d9 bd c1 72 e6 bb
       0.08082657 -0.10664823 -0.10608321 -0.0070327227
000250 4a bf 0c 3e f3 fa a9 bc 3c b1 85 bd cb b9 17 3d
       0.13744846 -0.020749545 -0.065279454 0.03704242
000260 8b 10 85 bc 5a 72 58 3d 33 f1 9f 3d 6a 1a df bd
       -0.01624324 0.05284343 0.07809677 -0.1089371
000270 ab 5e 00 be f4 64 e8 bc e3 43 16 3b b6 34 06 bd
       -0.12536113 -0.02836845 0.0022928647 -0.032765113
000280 da 20 94 bd 24 e9 c5 bd f0 03 c7 3d 59 f6 aa bc
       -0.072328284 -0.09663609 0.09717548 -0.02086942
000290 22 7f cc 3d b0 19 b3 bc f0 75 bf 3d 4f ff 72 3b
       0.09985186 -0.021862835 0.09348667 0.0037078445
0002a0 d6 a5 ab 3d 4c 09 9c bd d4 b1 04 be e8 4d b3 3c
       0.0838124 -0.07618961 -0.12958461 0.021887735
0002b0 60 de 01 bd b8 da c7 3d 6a d0 b0 3d c5 c2 ae bc
       -0.031706214 0.09758514 0.08633502 -0.021333108
0002c0 0a 4a dc bc b0 e9 e2 bd 6c 70 f8 3d 10 d7 d5 bd
       -0.026890773 -0.110797286 0.12130818 -0.104414105
0002d0 24 23 ae 3c ff 3c e6 bc 7d 6d 12 3d 1c 9c f6 3d
       0.02125699 -0.028105257 0.035748947 0.12041494
0002e0 e7 5a 08 3d 69 60 99 3d 24 24 9a bc 48 35 39 3c
       0.033289816 0.07489092 -0.018816061 0.011304207
0002f0 0d ca d3 3c 02 d8 b1 3d 62 29 a8 bd 19 e2 de bd
       0.025853181 0.08683778 -0.08211018 -0.108829685
000300 57 2d f1 bd 5f dd 5b 3d 77 cd ec 3d 46 2b 1f be
       -0.11776226 0.053677913 0.11562627 -0.15543851
000310 00 1f 1b bd 1e 9f 32 bb 63 d1 a5 3d c3 d3 df bd
       -0.03787136 -0.0027255486 0.08096578 -0.10929062
000320 1d 7a 31 3c ca 5b 2b bd eb 30 e3 bc 9d ac 11 be
       0.010832337 -0.041835584 -0.027733287 -0.14226003
000330 d7 ea 83 bd 55 83 e5 3d f7 9c cd 3c 09 b9 54 3c
       -0.064412765 0.1120669 0.02509926 0.012983569
000340 39 37 3f 3c 95 30 a4 bd 21 20 91 3d 9d fc d0 bc
       0.011670881 -0.08017079 0.07086206 -0.02551108
000350 49 05 a1 3c 24 b6 2c bd 1f 32 c0 bd fe 4e 7c 3d
       0.01965584 -0.04216589 -0.0938456 0.06159877
000360 30 56 58 bd c5 a0 4d 3d ad 5b e8 3d 34 ce 09 bd
       -0.05281657 0.05020215 0.11345611 -0.033643916
000370 80 7b fd bc 0b b9 cb 3d 42 1d 23 bc 3f c7 53 3c
       -0.030942678 0.099474035 -0.009955706 0.012925922
000380 4a 27 4f bd 35 f7 ed bc 1e 43 5c bd 44 ca c9 bd
       -0.05057458 -0.029048542 -0.053774945 -0.09853032
000390 df 98 00 3b 84 7b 93 bc 18 a9 e3 bd 4d 3a ad 3d
       0.0019622368 -0.018003233 -0.111162364 0.084583856
0003a0 ae c7 03 be 2a 97 8d bd 3f 12 df 3d c9 9a 9b bd
       -0.1286914 -0.06913598 0.10892152 -0.07597882
0003b0 8a 86 1f 3d 55 55 b5 3d 3f 21 90 bd d5 e9 52 3d
       0.038946666 0.088541664 -0.07037591 0.05149253
0003c0 ad 28 67 3d 8e 04 c9 bd a5 b7 50 3d b6 19 0d bd
       0.056435276 -0.09815322 0.050956387 -0.034448348
0003d0 03 86 ca 3a d6 fc d0 3c 19 77 45 3d 6a f5 eb 3d
       0.0015451316 0.025511187 0.048209284 0.115214184
0003e0 6d 59 ca bd 0d 4a a5 bb db 49 3a 3d 38 94 89 bc
       -0.09880338 -0.005044228 0.04548059 -0.016794309
0003f0 a0 90 49 bc 84 31 16 bd 85 bd c3 3d 6c 72 73 3d
       -0.012302548 -0.036668316 0.09557632 0.059435293

net.2.bias f4 [256]
000000 10 60 24 bd e9 d5 8b bc 3d 2c b3 bb b7 23 fc bc
       -0.040130675 -0.017069774 -0.00546792 -0.030778749
000010 ea 51 2c bd 68 ba e0 bc 0d 70 19 3c ac 91 34 bc
       -0.042070307 -0.027432635 0.009365094 -0.011021059
000020 a9 3d 18 bc 53 18 b6 3c 4e 71 f6 3c 64 14 b0 3c
       -0.009292045 0.022228396 0.030083325 0.021494098
000030 04 3c 99 bc 56 ce ce 3b fb 28 98 3b de 6f 5a bd
       -0.018705375 0.0063112183 0.004643557 -0.05332934
000040 01 ee da bc 5e bc 1d bd f7 d1 2a 3d 52 22 09 bc
       -0.026724817 -0.03850972 0.041704144 -0.008369999
000050 c3 95 f4 bb da e4 d9 3c 38 b7 50 bd ab d8 2b bd
       -0.007464142 0.026598383 -0.05095598 -0.041954678
000060 e6 27 bc bc 03 74 a5 3c 7f 99 03 bc 22 c7 67 bd
       -0.022968244 0.02019692 -0.008032202 -0.056586392
000070 cd 27 8e bc 32 c2 30 bd 30 31 a6 3a e2 53 a3 3a
       -0.017352963 -0.04315395 0.0012679454 0.0012460912
000080 55 d9 b4 bc b5 20 95 3c dd 13 61 3c a0 47 22 bc
       -0.022076288 0.018204072 0.013737646 -0.009904772
000090 ae 5a b8 bc 48 75 03 bc 9d bf 87 bc 46 47 19 3d
       -0.022504177 -0.0080235675 -0.01657086 0.037421487
0000a0 d4 d4 3e bd 5c 93 03 bd 82 ae 93 3d 7c d6 86 3b
       -0.046589687 -0.032122955 0.07211019 0.004114924
0000b0 d3 74 77 3b 96 89 21 3c 1d fe 5a 3d 57 58 1e bd
       0.0037758842 0.009859463 0.053464998 -0.038658466
0000c0 a7 f1 f8 bc 81 d4 80 3a e9 2e a9 bc 2a a5 2b bd
       -0.030388666 0.0009828956 -0.020652251 -0.04190556
0000d0 48 80 b0 3c 42 61 6f bc 76 b3 ec bb 64 fd 31 bd
       0.021545544 -0.01461059 -0.007223542 -0.043454543
0000e0 ee c7 98 bc bb 0d 0b 3c 37 a2 1e 3c f8 98 16 bd
       -0.018650021 0.00848716 0.00968223 -0.036766976
0000f0 9d cd e1 bb 3d c1 4e bc cc 04 12 3c 23 4e d5 3c
       -0.006890966 -0.012619314 0.0089122765 0.026038235
000100 aa 3d 1a bd 1a 44 eb 3b 3c b2 1c bd 2f 2c 77 3c
       -0.037656464 0.007179749 -0.038255915 0.015086218
000110 df 24 f1 bc b6 78 0c bc 5b 69 e4 bb 79 9c 8b bd
       -0.029436527 -0.008573702 -0.006970567 -0.06816954
000120 b8 2e 13 bd 12 3c b7 bb 73 5a 3f bd 25 30 4e bd
       -0.035933226 -0.0055918777 -0.04671712 -0.050338883
000130 7c 20 de bb 80 fe d0 bc 86 5c c2 bc b0 48 98 bd
       -0.006778775 -0.02551198 -0.02372576 -0.07435739
000140 e3 44 ac 3c d6 15 d8 bc 60 82 20 bd 7c b9 5f bd
       0.021028941 -0.0263776 -0.039186835 -0.05462025
000150 55 5e c1 bc b9 da bc 3c 13 97 f1 bb b3 b1 a3 3b
       -0.023604551 0.023053514 -0.007372746 0.0049955486
000160 42 1d 5d bd 89 ae 21 3c 15 a6 32 3c 9c 59 a2 bc
       -0.05398298 0.009868273 0.010903855 -0.01981812
000170 61 92 57 bd c2 fd 14 3a fe 9c cb 3c f4 e2 d3 bc
       -0.052629832 0.0005683565 0.024855133 -0.025865056
000180 f0 28 54 bb 63 16 cf 3b a2 17 99 bb 87 3f 5e bd
       -0.0032373033 0.0063198074 -0.0046720067 -0.054259803
000190 08 2f 27 bd c0 18 71 3c e9 45 ef bb c9 11 35 ba
       -0.040816337 0.0147153735 -0.007302035 -0.0006907252
0001a0 1b 2f 06 bc 27 cc c3 bc 04 16 d4 bc 2c d2 ab bc
       -0.008189942 -0.023901058 -0.025889404 -0.020974241
0001b0 b4 11 b5 bb e5 0b 90 bc 74 03 2b 3c 0c 5a 5b bd
       -0.005525792 -0.017583797 0.010437835 -0.053552672
0001c0 57 c6 cd bc 36 6c 1a bd 34 0a 5e bd 34 09 90 bc
       -0.02511899 -0.037700854 -0.05420895 -0.017582513
0001d0 9c 0b ed 3d 5b 32 c9 bb 6f 9a 3f bc cb 36 0d 3d
       0.1157448 -0.006140036 -0.011694535 0.034476083
0001e0 24 68 c8 bb 37 16 91 bc 17 9c 96 bc d2 95 00 3c
       -0.00611593 -0.017710788 -0.018384976 0.00784822
0001f0 cd a4 71 3c 7c a9 9c 3b bb db 91 bc 23 21 38 bd
       0.014748764 0.0047809463 -0.017804971 -0.044953477
000200 ba 90 d5 3c 21 d1 d5 3c a5 6f 16 bd 37 a5 8c bd
       0.026069988 0.026100697 -0.036727566 -0.0686745
000210 83 07 6d bd 4b 5e cc bc c6 d1 6b bd d0 d6 b0 bc
       -0.05786849 -0.024947306 -0.057573102 -0.021586806
000220 e0 b2 33 3d a6 30 8b bd 72 2a 51 bc 74 9b 4f bd
       0.04387176 -0.06796388 -0.012766467 -0.05068536
000230 c1 3b 80 bd e3 c2 0b bd 72 8c 58 bd a3 4f fe 3b
       -0.06261397 -0.034121405 -0.052868314 0.0077609583
000240 46 7c d3 bc ae f6 92 bc 4b 1f 4a bd 4e 1c bb 3c
       -0.025816094 -0.017939892 -0.04934625 0.022840645
000250 24 f3 00 bd 05 fd 19 bd c5 12 69 bc 0b 69 9e bd
       -0.031481877 -0.037594814 -0.014225666 -0.07734879
000260 80 e8 89 3d 39 04 84 bb f8 65 bd bb d0 5d 4f bd
       0.06733799 -0.0040288237 -0.005779978 -0.050626576
000270 6d e1 b6 3a dc 46 cd 3c 3c 90 b3 3c 9d 0b f8 39
       0.001395268 0.025058202 0.021919362 0.000473109
000280 e5 33 3d bc 85 11 4c bd 4e ff 90 3c ac 5c e0 bc
       -0.011548017 -0.049821395 0.017699864 -0.02738794
000290 f4 e5 16 3b df eb c3 bc 1b 93 68 bd 74 11 ac 3c
       0.0023025246 -0.023916183 -0.056780916 0.021004416
0002a0 0d 00 b3 3c 36 50 40 bc f3 e6 7b bc c2 6b ce bc
       0.02185061 -0.011737874 -0.015374887 -0.025197867
0002b0 fa 62 ee bb 53 ad 07 bd b8 ca 7d bd 4b 5d 07 bd
       -0.0072749825 -0.03312428 -0.061960906 -0.033047955
0002c0 64 88 94 bc 81 13 02 3b 1c 0e e0 3c be 99 ab bb
       -0.018131442 0.001984805 0.027350478 -0.0052368334
0002d0 b0 46 14 3c 28 26 dd bc 6c 51 9b bc 22 7f 74 3d
       0.009050056 -0.026995733 -0.018959723 0.059691556
0002e0 58 9b 42 3c 47 0c 0a bd 0c 0b 84 3b d6 c3 11 bd
       0.011877857 -0.033703115 0.004029637 -0.035587154
0002f0 4e b0 44 bc b5 15 d5 bb 04 28 85 bd ea cc 91 3c
       -0.012004925 -0.006502832 -0.06501773 0.017797906
000300 83 07 48 bd 01 4e 20 bc 54 ff db bc f0 58 34 bc
       -0.04883529 -0.009784223 -0.026855148 -0.0110075325
000310 00 0d 04 bd 72 6a 91 3d c6 e5 bf bc a1 7a 07 bd
       -0.03223896 0.07100381 -0.023424994 -0.033075932
000320 e6 e9 28 3b 4a 68 fd bc 8e a9 a2 bc f3 50 95 bc
       0.002577418 -0.030933518 -0.01985624 -0.018227076
000330 15 70 80 bd c9 4e 2c bd a9 1f 33 bb e3 36 53 bd
       -0.06271378 -0.042067323 -0.0027332103 -0.051566016
000340 79 12 52 bd d5 23 39 bc 8f 17 8b bd cd 02 d0 bc
       -0.05128715 -0.011300047 -0.06791603 -0.02539196
000350 91 a6 1e bd 4b 2b 04 bd c2 63 36 bd e2 f1 37 3d
       -0.03873307 -0.03226785 -0.04452873 0.04490841
000360 53 e2 99 bd 3e 4b 42 bd 33 e7 0b bc 72 82 65 bd
       -0.07513871 -0.047435038 -0.008539009 -0.056032605
000370 2c 14 9b 3c 9d 55 d0 bc eb b5 5a 3d 45 11 8c bc
       0.018930517 -0.025431449 0.053396147 -0.017098079
000380 3d 0f fa 3c 64 61 90 ba d7 0a aa b9 17 f9 de bc
       0.030524844 -0.0011015353 -0.00032433003 -0.027218385
000390 f6 15 b5 bc 6c 82 77 bc 7f 3b a7 bb e4 69 ec 3b
       -0.022105198 -0.015106779 -0.005103528 0.0072147716
0003a0 c1 04 a8 bc 8c 1f c4 bb dd c7 96 bc c7 1b 08 bc
       -0.02051008 -0.005985206 -0.01840585 -0.008307404
0003b0 de b5 dd bc 81 ef a3 bc 89 70 d6 bc 84 30 09 bd
       -0.02706426 -0.020011665 -0.026176708 -0.033493534
0003c0 c3 5e 01 3d fb 1a f0 bc 6e eb cf bc 36 02 ae bd
       0.031584512 -0.02930974 -0.025380816 -0.084965155
0003d0 29 77 0d bd c5 72 22 3d ed 75 15 bd c2 55 6c bd
       -0.034537468 0.039660234 -0.036489416 -0.057698973
0003e0 a0 4e da bc 20 a3 29 bd 8c 22 a2 bc 24 05 00 bd
       -0.02664882 -0.041415334 -0.019791864 -0.031254902
0003f0 5f 48 44 bd 07 07 3b bd ee 6c 69 ba 08 02 4c bd
       -0.04792058 -0.045661 -0.00089044764 -0.049806625

net.last_linear.weight f4 [4, 256]
000000 7f 6a 3b be 0f 69 dd bd f8 9d a1 bd 6b 5b 9b 3d
       -0.18302344 -0.10811054 -0.07891458 0.07585796
000010 f3 46 43 be aa 36 2f be b9 ac fb 3d 86 93 2d 3e
       -0.19070034 -0.17110696 0.122888036 0.16950807
000020 64 b3 43 3e 29 39 3c be 63 38 a1 bd 96 f8 93 bd
       0.19111401 -0.1838118 -0.07872083 -0.072251484
000030 24 c9 21 be e7 40 09 be 26 42 2d be c6 a0 07 bd
       -0.15799385 -0.13403665 -0.16919765 -0.03311231
000040 6e 6e 88 3d 94 59 dc 3d 44 9e cb bd 0e ca a0 3d
       0.06661688 0.10759273 -0.09942296 0.07851039
000050 c8 85 32 3e 27 b3 a8 3d 64 97 0d be f4 72 17 3e
       0.17433846 0.082372956 -0.13827282 0.14789945
000060 6e 98 94 3d d4 82 32 be a4 47 ac bd e0 44 de bc
       0.07255636 -0.1743272 -0.08412102 -0.027132452
000070 bc 39 f7 3d 1b 70 39 bd 49 c5 54 3d 2c 16 0b be
       0.12071559 -0.045272928 0.05194596 -0.13582677
000080 d6 6c 71 3e 01 35 12 be 8b 0d 7a be fe dc 23 be
       0.23576674 -0.14278032 -0.24419229 -0.1600227
000090 39 3c ee 3d 53 c5 cc bd 1f d4 19 be 2b 49 44 3c
       0.1163258 -0.09998574 -0.15022324 0.011980335
0000a0 e7 b8 0f 3e d6 58 56 be 91 30 45 bd 03 98 6f be
       0.14035378 -0.20932326 -0.04814202 -0.23397832
0000b0 41 85 5d 3e e3 24 2f be 0f 6e ae bb 5b 17 14 3e
       0.21632864 -0.17103915 -0.0053231786 0.14462034
0000c0 73 c3 c0 3d ec 27 e9 3d cd dc 3e 3e 0b 17 55 3d
       0.09412279 0.113845676 0.18638916 0.05202393
0000d0 10 17 ab 3d 1c 58 13 3e 76 7a 3b 3e 58 d0 3d 3e
       0.08354008 0.1438908 0.18308434 0.18536508
0000e0 a5 f3 0f 3e 94 cc cf bd 0b e2 ac bb e2 12 11 3e
       0.14057787 -0.10146442 -0.00527597 0.1416736
0000f0 5f 8e 03 3e 4b b2 4e be 31 02 d7 3c db ff 6a be
       0.12847279 -0.20185201 0.026246162 -0.22949164
000100 af a0 27 be 21 5b 52 3d ee 01 24 3e 95 ed 0d bc
       -0.1636989 0.05135644 0.16016361 -0.008662601
000110 de 85 0f be d1 dc e6 3d a4 54 9d 3c 60 e9 d5 3d
       -0.1401591 0.11272586 0.019205399 0.104449034
000120 43 0f 84 3d 60 81 50 be cd 61 56 3d d7 10 1d 3e
       0.064482234 -0.20361853 0.052339364 0.15338455
000130 a8 bc 46 bd a3 6e cb 3d 72 b8 8f 3d 94 a6 11 3e
       -0.04851976 0.09933212 0.07017602 0.14223701
000140 9e 75 9b 3d ea 41 da 3d 1a df ca bd 6d e4 18 3e
       0.07590793 0.10657103 -0.099058345 0.14930888
000150 84 81 40 bd 31 44 8c 3d 72 d0 ae 3d 58 c2 4d bd
       -0.046998516 0.06848944 0.085358515 -0.05023417
000160 e7 74 63 bd 1d 5e 65 be bb 15 fc bd e7 c1 29 bc
       -0.05553141 -0.22399183 -0.12308832 -0.010361171
000170 5d 8d 0c be 55 6b 3b be f3 52 33 bd c7 5f af bd
       -0.13725801 -0.18302663 -0.04378028 -0.0856319
000180 8b ff 16 3c 9a f5 53 be 06 df 05 3e e2 f2 1d 3e
       0.0092162 -0.20699158 0.13073358 0.15424684
000190 f6 e4 a8 bd 90 58 1c 3e bb 81 af bd 63 45 2e 3e
       -0.08246796 0.15268159 -0.08569666 0.17018656
0001a0 ca de 00 bd 62 2b c2 bd 5e 51 40 be 92 90 a7 3d
       -0.03146247 -0.09480931 -0.18781039 0.081818715
0001b0 ee 35 f4 bd de d4 84 3d fb b2 06 3e a5 c5 59 3e
       -0.11924349 0.06485914 0.13154213 0.21266802
0001c0 32 38 06 3e 16 8d b7 3d d1 88 e1 3d b3 8b 03 3e
       0.13107374 0.08962457 0.11012424 0.1284626
0001d0 7d c6 8b 3c 88 bb 13 be 36 cf a5 bd 15 51 03 be
       0.01706242 -0.14427006 -0.08096163 -0.12823899
0001e0 10 e4 b6 bc 24 e7 29 be fb 63 48 be b4 9c 9b 3d
       -0.022325546 -0.1659208 -0.1956939 0.07598248
0001f0 69 29 67 3e bf dd 4a bd ff 51 6d bd 98 32 10 be
       0.2257439 -0.04952788 -0.057939526 -0.140818
000200 ab 4f dc bd 41 c0 c3 bc 9f c6 7c 3d 9d cf af 3d
       -0.10757383 -0.023895385 0.061712857 0.08584521
000210 3a 8c cd 3d ad 54 63 be d5 08 45 3e 5b b3 18 3c
       0.10036512 -0.2220027 0.1924165 0.009320105
000220 1c 2d bc bd 72 2b c9 bd c4 a7 c2 bd 2f ea 1f 3e
       -0.091882914 -0.0982274 -0.09504655 0.15616678
000230 fc d2 86 3d 41 fb 0b 3e a5 7f 23 3e 62 52 87 be
       0.06583211 0.13670065 0.15966661 -0.2643004
000240 cf 53 ce 3d 1f 59 71 be 4e d4 80 bd cf 04 1c be
       0.10074579 -0.23569153 -0.06290494 -0.1523621
000250 bc 63 be 3d 56 c1 94 bd 9b 2f 31 be 64 07 85 3d
       0.092963666 -0.072634384 -0.17303316 0.0649555
000260 20 8f 21 bd e1 85 d2 bd 73 44 90 bd 51 c2 97 bc
       -0.039443135 -0.102794416 -0.07044306 -0.018525274
000270 bc 8d 0d be 2f c2 33 be 21 49 f6 bd 28 35 3f be
       -0.13823599 -0.17554544 -0.12025667 -0.18672621
000280 6c 86 dc bd 18 75 dd bb 99 3f f8 3d 49 e8 d5 3d
       -0.107678264 -0.0067583434 0.12121505 0.104446955
000290 0d 37 12 bd cf 76 38 3e 98 ca ac 3d 2d f4 86 3d
       -0.03569703 0.18014072 0.08437079 0.065895416
0002a0 49 40 5d 3e 4c ae fe 3d 08 0f 49 3e da c7 92 3d
       0.21606554 0.12435588 0.1963464 0.07167025
0002b0 be f7 ad 3d e3 f3 66 bc 91 8f a4 3d 41 7f c3 3c
       0.08494519 -0.014096233 0.080351956 0.02386439
0002c0 d9 b9 67 3e 8a a4 04 3e dd 31 f8 ba 8e 34 0e 3e
       0.22629489 0.12953392 -0.0018935759 0.13887236
0002d0 63 b3 24 3e fb 1d dc 3d 35 1c 6b bd 00 63 d9 bd
       0.16084056 0.10747906 -0.057399947 -0.10614586
0002e0 05 b9 18 be 65 69 91 3e 19 33 ae 3d cd 06 19 3e
       -0.1491433 0.28400722 0.0850584 0.14944
0002f0 ea 2b 3f 3e 81 fa a0 bd b4 32 db 3c ac 3f 01 be
       0.18669096 -0.0786028 0.026757576 -0.12621945
000300 09 f6 48 3e 7a e8 dd bc d5 d4 47 3d 8f 08 8f 3d
       0.19625105 -0.027088393 0.048786957 0.06984054
000310 63 a4 30 be 99 f1 51 bd 93 05 07 3e 67 ad 0e bd
       -0.17250209 -0.051255796 0.1318572 -0.034833338
000320 01 08 0d 3e ee ef 33 3d 68 80 ea 3c cb 5a f9 3d
       0.13772584 0.043929987 0.028625682 0.121755205
000330 31 b8 b7 3c 7a 90 29 3e d3 fd f1 bd 81 db 20 3c
       0.022426696 0.1655902 -0.11815991 0.009817959
000340 16 38 25 be 11 e9 e3 3d 40 10 ce 3b b8 c5 11 be
       -0.16134676 0.11128438 0.0062885582 -0.1423558
000350 11 24 b3 3d a1 29 05 be 6d 02 2a 3e 62 7e b7 bd
       0.087471135 -0.13004161 0.16602488 -0.089596525
000360 b6 c9 02 3e c2 2f 80 be 6d af d7 bd 34 a7 b5 3d
       0.12772259 -0.25036436 -0.10531507 0.08869782
000370 9a 8c f3 bd 65 39 26 3e 0d 12 80 bb cf e2 15 3e
       -0.11892052 0.16232832 -0.003908402 0.14637302
000380 9b d5 af bd a1 8b 52 be 5e fe fd bd 44 2d 95 3d
       -0.08585664 -0.20561077 -0.12402032 0.07284024
000390 1e b7 b0 3d b2 79 27 3e eb a1 17 be 29 61 2e bd
       0.08628677 0.16355017 -0.1480786 -0.042573128
0003a0 26 e6 25 3e ab 66 c0 3d 70 2d b0 3d f3 15 0f 3e
       0.16201076 0.09394582 0.086024165 0.13973217
0003b0 eb 4f d9 3d e3 f8 cc bd 7a 7e c1 bd d6 5d 03 be
       0.10610946 -0.10008409 -0.094479516 -0.12828764
0003c0 21 b5 44 bd 62 10 26 3e 4a e9 0a bc 2a 60 c8 bc
       -0.0480243 0.16217187 -0.008478472 -0.024459917
0003d0 ad 89 33 3d 9b 76 d6 bd 62 30 79 3c 11 7f 7d bd
       0.04383247 -0.10471841 0.015209289 -0.061888758
0003e0 03 2b 84 bd c4 b3 c1 3c b1 a1 b7 bc fd 14 0d 3e
       -0.06453516 0.02364529 -0.022415968 0.13777538
0003f0 1e d4 54 3d 28 48 b1 3b 06 44 85 be 82 ce bf 3d
       0.051960103 0.005410213 -0.2602846 0.0936556

net.last_linear.bias f4 [4]
000000 17 0a c0 bc 1b 8d 8e bb 22 1d b0 bd 36 0b ee bd
       -0.023442311 -0.004350317 -0.08599307 -0.11623232
