models/model_intersection/actor.pth (torch, 565191 bytes, 6 tensors)

net.0.weight f4 [256, 288]
0	0xbd1e8779	-0.038703416
1	0xbd91a444	-0.07111409
2	0xbd540645	-0.05176379
3	0x3d6855a6	0.056722306
4	0xbca3879e	-0.019962128
5	0xbc001afa	-0.007818932
6	0xbd93ef38	-0.07223362
7	0x3974c955	0.00023344655
8	0x3d14803b	0.036255103
9	0xbd3cc7e6	-0.046089076
10	0xbdaec852	-0.08534302
11	0x3ce46d36	0.027884107
12	0x3d60306e	0.054733686
13	0x3dc60640	0.09669161
14	0xbc1635d1	-0.009168104
15	0xbd3c4189	-0.045960937
16	0xbd2fe977	-0.04294726
17	0x3d0e80ae	0.034790687
18	0x3db7c1e8	0.089725316
19	0x3d172cf4	0.036908105
20	0xbccf67d5	-0.025318066
21	0x3a464a89	0.0007564207
22	0xbd2025e7	-0.039098646
23	0xbda5a223	-0.08087566
24	0xbd836e10	-0.06417477
25	0x3d8263a8	0.06366664
26	0x3d732538	0.059361666
27	0xbb99654a	-0.004681264
28	0xbd309906	-0.043114685
29	0xbe05032b	-0.1298949
30	0xbd6822d8	-0.056673855
31	0xbd6a58f4	-0.05721374
32	0x3d629a00	0.055322647
33	0xbd393073	-0.04521222
34	0x3d7b3f61	0.06133974
35	0xbd2ba9f8	-0.04191014
36	0xbc88d4df	-0.016703067
37	0x3e29181a	0.165131
38	0x3d681192	0.05665738
39	0x3dff3b28	0.12462455
40	0xbdcd7c74	-0.10033503
41	0x3d6fc149	0.05853394
42	0x3d682ddf	0.05668437
43	0xbcfff5a5	-0.031245062
44	0xbdef5c69	-0.11687548
45	0xbd407460	-0.046985984
46	0xbd7ac72b	-0.061225098
47	0x3da2ba15	0.079456486
48	0xbd27f6ef	-0.04100698
49	0xbc0c5958	-0.008566223
50	0xbcc98037	-0.02459727
51	0x3dab9635	0.08378259
52	0x3d12c2de	0.03583037
53	0x3d539fb6	0.051665984
54	0x3dcf991a	0.10136624
55	0x3d80d7f0	0.06291187
56	0xbd7fb96a	-0.062432684
57	0xbdef55bf	-0.11686277
58	0x3d7b28e7	0.061318304
59	0xbd0f72d8	-0.035021633
60	0xbc373610	-0.011182323
61	0xbe072c5d	-0.13200517
62	0x3df5f771	0.12010086
63	0xbc4ff9e8	-0.01269386
64	0xbd6d063c	-0.057867274
65	0x3db2104e	0.08694516
66	0x3cbe2513	0.023211038
67	0xbc3c0fb6	-0.011478355
68	0xbdf148a6	-0.11781435
69	0xbcc40a80	-0.023930788
70	0x3deeae92	0.116543904
71	0xbd18f4c2	-0.037342794
72	0xbc446afb	-0.011988397
73	0xbd855ad6	-0.06511466
74	0xbc3b152d	-0.011418623
75	0x3d23b83d	0.039970625
76	0x3dd1f473	0.10251703
77	0x3baaed56	0.005216281
78	0x3d891502	0.0669346
79	0x3dc4b491	0.09604753
80	0x3b96001f	0.004577651
81	0x3db7ae2f	0.0896877
82	0x3c7804ad	0.015137834
83	0x3d7c1dea	0.061551966
84	0xbcd49340	-0.02594912
85	0x3d8e5697	0.069501095
86	0xbca64a50	-0.020299107
87	0xbbe1f824	-0.0068960357
88	0xbd578952	-0.052621193
89	0xba5fc34b	-0.0008535876
90	0xbdb7292d	-0.089434005
91	0xbc095549	-0.00838215
92	0xbcb23b2d	-0.021756733
93	0xbdac5811	-0.08415235
94	0xbca88194	-0.0205696
95	0xbd12dcb9	-0.03585503
96	0xbcf09119	-0.029366063
97	0xbd9d4f34	-0.076811224
98	0xbde212a6	-0.11038713
99	0x3db6a1da	0.089175895
100	0xbd0a7f0c	-0.033812568
101	0x3cc10ad3	0.023564732
102	0xbc6b0e6a	-0.014346698
103	0xbd9942da	-0.07483454
104	0xbdacf4b4	-0.08445111
105	0xbdc68210	-0.09692776
106	0x3da7230e	0.08160983
107	0x3d79075d	0.060798038
108	0xbc84d64a	-0.016215462
109	0x3d94bdb5	0.07262746
110	0x3c64c222	0.0139623005
111	0xbd17ed6d	-0.03709166
112	0x3d1b76ae	0.03795498
113	0x3dbf2edc	0.093351096
114	0x3a932711	0.0011226853
115	0xbcfc002b	-0.030761799
116	0xbd495a7e	-0.049158566
117	0xbdcfcb8f	-0.101462476
118	0x3d6cd55d	0.057820667
119	0xbce27816	-0.027645152
120	0xbcfd174e	-0.030894902
121	0xbdb2ae1f	-0.08724617
122	0x3c8a5caf	0.016889898
123	0xbd2228e4	-0.039589778
124	0xbd8357c6	-0.06413226
125	0x3d81f2d1	0.06345142
126	0x3d96f9bc	0.07371852
127	0x3da65c0d	0.08123026
128	0x3dca266d	0.098706104
129	0xbd8d77f9	-0.069076486
130	0xbd0849db	-0.03327356
131	0x3c381ddf	0.011237591
132	0x3d78ed15	0.060772974
133	0x3bb3e44e	0.0054898625
134	0xbd0dbd20	-0.03460419
135	0xbc2d1d00	-0.010565996
136	0xbdf440b9	-0.11926407
137	0x3e0238e4	0.12717015
138	0x3c2e4e30	0.010638759
139	0x3c3fc54a	0.011704752
140	0x3da66321	0.08124376
141	0xbd9fca97	-0.07802313
142	0xbb5071ab	-0.0031806033
143	0xbcfb11bb	-0.030648103
144	0xbdb7729a	-0.089574054
145	0xbc4233fc	-0.011853214
146	0x3db3f447	0.087868266
147	0xbdd247fd	-0.10267637
148	0xbbfdb42b	-0.007742425
149	0x3d19fa35	0.03759213
150	0xbe1680ed	-0.14697619
151	0xbe123503	-0.14278035
152	0xbd573bbf	-0.052547213
153	0xbe11d79d	-0.14242406
154	0xbdb72d4e	-0.08944188
155	0xbd8d6af5	-0.06905166
156	0x3da41901	0.080125816
157	0x3c182cb8	0.0092880055
158	0xbd8add67	-0.067805104
159	0xbd5aa327	-0.05337825
160	0xbd988bf8	-0.07448572
161	0x3db54e1c	0.08852789
162	0xbd57a51e	-0.052647702
163	0x3e126a3c	0.14298338
164	0xbd7d8af7	-0.061900105
165	0x3cec2e97	0.02883081
166	0x3cc0f226	0.023552965
167	0x3d9cd52c	0.07657847
168	0xbd35b733	-0.044364166
169	0xbdf546a6	-0.11976366
170	0x3dcee664	0.10102537
171	0x3d19c2cc	0.03753929
172	0xbbaaae95	-0.0052088
173	0xbda97c15	-0.0827562
174	0xbd88fa06	-0.06688313
175	0x3d27231f	0.04080498
176	0x3da7afd7	0.08187836
177	0xbdc2df65	-0.095152654
178	0xbdd1386c	-0.1021584
179	0x3db49a0a	0.08818443
180	0x3d8f0fc2	0.069854274
181	0x3de12bbb	0.10994669
182	0x3d88773b	0.066633664
183	0xbd1bca74	-0.03803487
184	0x3d998177	0.074953966
185	0x3dc886a0	0.09791303
186	0xbd9c1621	-0.07621408
187	0x3d32b680	0.043631077
188	0x3c16c84f	0.009203031
189	0x3d030de2	0.03199566
190	0x3d91b894	0.071152836
191	0xbd3a5cc1	-0.045498613
192	0xbd5b0714	-0.053473547
193	0xbd960d99	-0.07326812
194	0x3da3d471	0.07999504
195	0xbd1eff3b	-0.038817625
196	0xbd284a11	-0.04108626
197	0xbd978f99	-0.07400436
198	0x3dd3d57d	0.10343454
199	0x3d8f321c	0.069919795
200	0xbd1aaf29	-0.037764702
201	0xbcf03271	-0.029320927
202	0xbd9bdaf8	-0.07610124
203	0x3cfc4d6b	0.030798635
204	0xbd219dca	-0.03945712
205	0x3d8935ad	0.06699691
206	0xbd47df01	-0.048796657
207	0x3d1e744a	0.03868512
208	0xbc5ff91d	-0.013670233
209	0x3dab0fb3	0.08352604
210	0x3c2e2c55	0.010630687
211	0x3d55e572	0.05222077
212	0x3d20c548	0.039250642
213	0x3ce24c05	0.02762414
214	0xbddc8c56	-0.107689545
215	0x3c753cb7	0.014968089
216	0xbccc9517	-0.024973435
217	0x3d4b4d5d	0.049634326
218	0x3df22dde	0.11825155
219	0x3d40e972	0.04709763
220	0xbd3d338f	-0.04619175
221	0x3e0a2ecd	0.13494416
222	0x3cac07b0	0.02099976
223	0xba9e0632	-0.001205629
224	0x3d108c49	0.035290036
225	0x3dc84cf7	0.09780305
226	0x3dd5dbca	0.10442312
227	0xbdd9cae3	-0.10634401
228	0x3d83a7be	0.06428479
229	0x3cb363b0	0.02189812
230	0x3dd1d19b	0.10245057
231	0x3d68f24b	0.056871694
232	0x3d9f419a	0.077761844
233	0x3d8e555b	0.06949874
234	0xbd6ccd23	-0.05781282
235	0xbdc1d721	-0.09464861
236	0x3cb5879c	0.02215939
237	0x3dd0ac00	0.101890564
238	0xbd601ea5	-0.054716725
239	0xbda40ec8	-0.08010632
240	0x3d84d8c9	0.06486661
241	0xbdbd7b7d	-0.09252069
242	0xbd1b7134	-0.037949756
243	0x3c267607	0.010159976
244	0x3dd4779b	0.103743754
245	0xbcff4da0	-0.031164944
246	0x3d4691c5	0.04847886
247	0xbd95c91d	-0.0731375
248	0x3d9cebd5	0.07662169
249	0x3dbba505	0.09162334
250	0x3d3d1430	0.04616183
251	0x3b1b6fe0	0.0023717806
252	0xbd959be3	-0.07305124
253	0xbd93e881	-0.07222081
254	0x3be4e341	0.0069850986
255	0xbd0acdb9	-0.0338876

net.0.bias f4 [256]
0	0xbc9df29a	-0.01928072
1	0x3b3a139c	0.0028393036
2	0x3b744161	0.0037270414
3	0xbc22d55b	-0.009938563
4	0x3b4871f1	0.0030585492
5	0xbcc139e5	-0.023587177
6	0xbcf1eab8	-0.029530868
7	0xbc62ca27	-0.013842142
8	0xbd5ba075	-0.05361982
9	0xbc9005d8	-0.017580912
10	0xbab73c1b	-0.0013979705
11	0xbc908615	-0.01764206
12	0xbd08dc55	-0.03341325
13	0xbcd07578	-0.025446638
14	0x3af90fff	0.001900196
15	0xbcfd4d1d	-0.03092056
16	0xbd211b1c	-0.039332494
17	0xbc41b59d	-0.011823085
18	0x3c9c70a4	0.01909668
19	0xbca4306e	-0.020042624
20	0xbcb8a5c2	-0.022539977
21	0xbcadee7c	-0.021231882
22	0xbd028e8d	-0.03187423
23	0xbba77972	-0.005110913
24	0xbcec757b	-0.028864613
25	0xbd0fe8bc	-0.035134062
26	0x3bba84d4	0.005692104
27	0xbcfcb7c6	-0.030849349
28	0xbc75e2ae	-0.015007658
29	0xbd64c465	-0.05585136
30	0x3d537b7f	0.051631447
31	0xbbf6d1bd	-0.007532327
32	0xbd3d8f4d	-0.04627924
33	0xbd26a365	-0.04068317
34	0x3caed070	0.021339625
35	0xbc5b26d6	-0.013375958
36	0x3b111126	0.0022135465
37	0xbd505fb2	-0.050872512
38	0xbc7f29bd	-0.015573916
39	0xbd51f70b	-0.05126099
40	0x3c35fc4c	0.011107516
41	0xbd0b5632	-0.03401775
42	0xbca79ef6	-0.02046154
43	0xbd86f6cd	-0.06590042
44	0xb9766209	-0.00023496909
45	0xbd3cc694	-0.046087816
46	0xbd117f06	-0.03552153
47	0xbcb2e521	-0.021837773
48	0xbd2582fd	-0.040408123
49	0xbb17290e	-0.0023065242
50	0x3b62e26e	0.0034619826
51	0xbcc1cdad	-0.023657644
52	0xbc2f0109	-0.010681399
53	0x3cb97591	0.022639068
54	0xbd1a09ad	-0.037606884
55	0xbcdaae3f	-0.026694415
56	0xbd2e2004	-0.042511
57	0xbc7c18e4	-0.015386794
58	0xbd487fa8	-0.048949867
59	0xbcdf595f	-0.027264295
60	0xbce936e4	-0.028468557
61	0xbc5a3ba4	-0.0133198835
62	0x3ae4a4d1	0.0017444139
63	0xbd47673f	-0.048682448
64	0xbd1c9767	-0.038230326
65	0xbd2ebcb6	-0.042660438
66	0xbc0c8d68	-0.008578636
67	0xbcd67e74	-0.026183344
68	0xbd4aa67e	-0.049475186
69	0xbc5b4e9f	-0.013385444
70	0xbd14e01c	-0.03634654
71	0xbcfcb304	-0.03084708
72	0xbcb6d5ae	-0.022318687
73	0xbc0d2fb3	-0.008617329
74	0xbc9f4444	-0.019441731
75	0x3c650b8d	0.013979805
76	0xbc2e5fcf	-0.01064296
77	0xbcbf97da	-0.023387838
78	0xbaad5057	-0.0013222796
79	0xbcf6df97	-0.030135913
80	0xbb661597	-0.0035108083
81	0xbd5be63d	-0.05368637
82	0x3c6004e1	0.013673038
83	0xbbd3ab1c	-0.006459607
84	0xbcec97c4	-0.028880961
85	0xbc1fecef	-0.009761079
86	0xbd1095d2	-0.03529913
87	0xbd2bc0c9	-0.0419319
88	0xbb8becea	-0.0042701857
89	0x3c741ff4	0.014900196
90	0xbd1ab78d	-0.037772704
91	0x3c6d9cff	0.014502763
92	0xbcdfa99b	-0.027302554
93	0xbce8621c	-0.028367095
94	0xbd111c4f	-0.035427388
95	0xbc59d0f9	-0.013294452
96	0xbc8abd17	-0.016935868
97	0xbbe39704	-0.0069454927
98	0xbc4e8c36	-0.012606671
99	0x3b314467	0.0027048828
100	0xbcaec018	-0.021331832
101	0xbcb20bf4	-0.021734215
102	0x3c9a5134	0.018837549
103	0x3cad2cc3	0.021139508
104	0x3c4726c0	0.012155235
105	0xbc0a7357	-0.008450351
106	0xbb77cb2f	-0.0037810316
107	0xbc8997e8	-0.016796067
108	0xbc3301a7	-0.010925687
109	0xbc8f8801	-0.017520906
110	0xbd119c23	-0.035549294
111	0xbc9fa4e9	-0.019487815
112	0xbcb831a8	-0.022484615
113	0xbd00bdba	-0.031430937
114	0xbc7ecfc1	-0.015552462
115	0xbcef9140	-0.029244065
116	0xbc9f039e	-0.019410904
117	0xbc747dab	-0.01492254
118	0xbc28b46e	-0.010296924
119	0x3b4898fe	0.0030608769
120	0xbd340829	-0.043953095
121	0xbd0f6449	-0.03500775
122	0xbd178a09	-0.036996875
123	0xbd16c5e2	-0.03680981
124	0xbcb6a1fb	-0.022294035
125	0xbd2af57b	-0.041738015
126	0xbcbaa4c1	-0.022783639
127	0xbd00002e	-0.03125017
128	0xbd3e5bd3	-0.04647429
129	0xbcb8e0fa	-0.022568215
130	0xbc972d4e	-0.01845422
131	0xbcada2f8	-0.021195874
132	0xbcf6c688	-0.030123964
133	0xbd0335c1	-0.032033686
134	0xbce9b51f	-0.028528748
135	0x3af5bc67	0.0018748165
136	0xbcd5f711	-0.026118787
137	0xbacaf947	-0.0015485667
138	0xbbdc9843	-0.006732018
139	0xbc5f3904	-0.013624433
140	0x3bc7495b	0.0060817427
141	0xbc81395a	-0.015774418
142	0xbd2188b2	-0.039437003
143	0xbc825e5b	-0.015914133
144	0x3b925d2b	0.004466673
145	0x3bfff5ee	0.0078112995
146	0xbd193c09	-0.03741077
147	0xbcb68445	-0.022279868
148	0xb9e955bd	-0.00044505103
149	0xbd15cfcf	-0.036575135
150	0xbd02ce05	-0.031934757
151	0xbd2fbc0c	-0.042903945
152	0xbc0ec44f	-0.008713796
153	0xbccd5f19	-0.02506976
154	0x3b023cba	0.0019872622
155	0xbc973434	-0.01845751
156	0xbba4628b	-0.00501663
157	0x39ae9d45	0.0003330504
158	0xbd1eea29	-0.03879753
159	0xbcbbe162	-0.02293462
160	0xbc768cc2	-0.015048208
161	0xbcd702a9	-0.026246386
162	0xbca6e833	-0.020374393
163	0xbd2ee3b2	-0.042697616
164	0xbd1bd611	-0.038045947
165	0x3ae78d80	0.0017666072
166	0xbcd891f0	-0.026436776
167	0x3caef276	0.021355849
168	0xbc0b27b3	-0.008493352
169	0xbd4e6dd4	-0.05039771
170	0xba201240	-0.0006106235
171	0xbd065453	-0.03279526
172	0xbce0b970	-0.027432173
173	0xbd84d79d	-0.064864375
174	0xbd01f568	-0.03172818
175	0xbd01886a	-0.031624235
176	0xbd2b5e8e	-0.04183822
177	0xbc118eba	-0.008884126
178	0xbd019720	-0.031638265
179	0xbc692e10	-0.014232174
180	0xbc502191	-0.012703315
181	0xbce5fafe	-0.028073784
182	0xbd1e763b	-0.038686972
183	0xbc08200a	-0.00830842
184	0x3b15b15b	0.0022841308
185	0xbd36f4fd	-0.044667233
186	0xbceb7546	-0.028742444
187	0xbd311084	-0.04322864
188	0xbc32199c	-0.010870364
189	0xbc9467d0	-0.018115908
190	0xba21aabe	-0.0006167105
191	0xbc93d644	-0.018046506
192	0xbcd6b609	-0.026209848
193	0xbd266f68	-0.04063359
194	0xbd480824	-0.04883589
195	0xbb52dc6f	-0.0032174846
196	0xbcbec8cc	-0.023289107
197	0xbc775b1a	-0.015097404
198	0xbbc99d4f	-0.006152786
199	0xbd0138db	-0.031548362
200	0xbc51f199	-0.012813949
201	0xbd2b8635	-0.041876037
202	0xbba7e0d9	-0.0051232395
203	0x3b420ee2	0.0029610922
204	0xbb9dfb09	-0.0048211855
205	0xbd3ccd0c	-0.046093985
206	0xbcc5edc4	-0.024161227
207	0xbce49743	-0.027904158
208	0xbcc504d9	-0.024050163
209	0xbcbf1b34	-0.023328401
210	0xbd000d7a	-0.031262852
211	0xbd16915d	-0.036759723
212	0x3b9d570e	0.0048016375
213	0xbbbc020e	-0.0057375496
214	0xbd30384d	-0.043022443
215	0xbc47fef0	-0.012206778
216	0xbd0b7b8f	-0.03405338
217	0xb93544b4	-0.00017287099
218	0x3c884a1b	0.016636899
219	0xbd47ad70	-0.048749387
220	0xbcf8de1c	-0.030379348
221	0xbc510074	-0.012756456
222	0xbc5da95f	-0.013529151
223	0xbd07b645	-0.03313281
224	0x3b0ba20d	0.0021306307
225	0xbbf30979	-0.0074169007
226	0xbd1cf393	-0.038318228
227	0xbcce57df	-0.025188385
228	0xbb840bfb	-0.0040297485
229	0xbc92f2af	-0.017937986
230	0xbd17283f	-0.036903616
231	0x3c768866	0.015047168
232	0xbc14e5a1	-0.009087951
233	0xbcd8ed8b	-0.026480457
234	0xbcf4f64a	-0.029902596
235	0xbb1d990d	-0.0024047524
236	0xbcb13c01	-0.021635057
237	0xbd07c47d	-0.03314637
238	0xbc12f17a	-0.008968705
239	0x3b63a94a	0.0034738355
240	0xbcfc056e	-0.030764308
241	0xbce94153	-0.028473532
242	0xbd133099	-0.03593502
243	0xbbd18f98	-0.0063952915
244	0xbc93127f	-0.017953156
245	0xbd119ba5	-0.035548825
246	0xbcc8f933	-0.02453289
247	0xbd0947cb	-0.033515733
248	0xbc10252d	-0.008797926
249	0x3a5f7880	0.0008524731
250	0xbcfef404	-0.031122215
251	0xbc6f01c4	-0.014587823
252	0xbb7dbbbc	-0.0038716635
253	0xbcff22bf	-0.031144498
254	0xbcff2b03	-0.03114844
255	0xbd41ac80	-0.04728365

net.2.weight f4 [256, 256]
0	0x3dcac64a	0.09901102
1	0x3c770ff8	0.015079491
2	0xbb302f7f	-0.0026883779
3	0x3d4be873	0.049782228
4	0xbc2e8e82	-0.010654094
5	0x3d947f51	0.07250846
6	0xbda9c028	-0.08288604
7	0xbd839f19	-0.0642683
8	0xbd3a18e0	-0.04543388
9	0x3d6a5bce	0.057216458
10	0xbce316ac	-0.027720772
11	0x3d162f96	0.036666475
12	0x3d4bf476	0.049793683
13	0xbd5bdaf4	-0.053675607
14	0xbd79b04b	-0.06095914
15	0xbc6c87e5	-0.014436697
16	0xbbc6a65f	-0.0060623134
17	0x3cb4dea7	0.022078825
18	0x3d6078a2	0.054802544
19	0x3d70dc45	0.058803815
20	0xbdc3cb20	-0.095602274
21	0x3d549806	0.051902793
22	0xbc09fda0	-0.008422285
23	0x3c8c044f	0.017091898
24	0x3d437bdb	0.04772554
25	0x3cb95482	0.022623304
26	0x3cca4146	0.024689328
27	0x3c0eb1a8	0.008709349
28	0x3d2d57d1	0.042320076
29	0xbdce7e32	-0.100826636
30	0x3cc3dc00	0.023908615
31	0xbcc89d98	-0.024489209
32	0xbdaa48c9	-0.08314664
33	0x3defb1b5	0.11703817
34	0x3afc4e42	0.0019249397
35	0x3d796f1b	0.060896974
36	0xbd47fd59	-0.048825596
37	0xbde61d4d	-0.112360574
38	0xbde88713	-0.11353888
39	0xbdb79ce9	-0.08965475
40	0xbe02131d	-0.12702604
41	0xbdd700e2	-0.10498215
42	0xbd365341	-0.04451299
43	0x3daa8a6d	0.08327184
44	0x3cd3bd5a	0.025847126
45	0xbd557d1f	-0.052121278
46	0xbd74d7a6	-0.05977597
47	0xbd873ab3	-0.06602993
48	0x3d339d35	0.043851096
49	0xbcafd34f	-0.021463064
50	0xbde6c205	-0.11267475
51	0x3d372e8c	0.044722125
52	0x3d87458f	0.06605064
53	0xbd317733	-0.043326568
54	0xbcc9e6a4	-0.02464611
55	0xbd5f8e9f	-0.054579373
56	0x3c9cc789	0.019138115
57	0x3cfe175f	0.031017004
58	0x3bcf9431	0.0063348045
59	0xbd991112	-0.07473959
60	0x3db42d3f	0.087976925
61	0x3dbae2e4	0.09125307
62	0xbd5a6d84	-0.0533271
63	0x3de95ba3	0.113944314
64	0x3d91cafe	0.07118796
65	0x3db02b68	0.08602029
66	0x3cc99be7	0.024610473
67	0x3b842b9a	0.004033518
68	0xbdf1b78e	-0.118025884
69	0xbd9f5382	-0.077796
70	0x3d909019	0.070587344
71	0x3dae9c49	0.08525903
72	0x3c929c47	0.017896784
73	0x3cda635c	0.026658706
74	0xbc91f4ad	-0.017816866
75	0x3d308279	0.04309318
76	0xbd794026	-0.060852192
77	0x3c3214df	0.010869234
78	0x3d4acaba	0.04950974
79	0xbde7c4a9	-0.11316807
80	0xbaf72cf9	-0.0018858007
81	0x3be2c488	0.006920401
82	0x3d110b40	0.03541112
83	0xbdd6e582	-0.10492994
84	0xbcd33935	-0.025784114
85	0xbdc05311	-0.09390844
86	0x3db4d311	0.0882932
87	0xbda08b14	-0.07839027
88	0x3afc2a31	0.0019238648
89	0xbd2584c4	-0.04040982
90	0xbd745578	-0.05965182
91	0x3d1e125d	0.03859173
92	0xbd88d7c8	-0.06681782
93	0xbe042578	-0.12904918
94	0x3dd138af	0.1021589
95	0x3dcf4e58	0.10122365
96	0xbd22cfc4	-0.039748922
97	0xbb02b0ad	-0.0019941733
98	0x3d25d61f	0.040487405
99	0x3dfe58bb	0.12419268
100	0xbdb419a9	-0.08793957
101	0xbd829a78	-0.06377119
102	0xbddd684e	-0.1081091
103	0x3d753a88	0.059870273
104	0xbb8f5f85	-0.0043754005
105	0xbcd4736f	-0.02593395
106	0xbcee4bdb	-0.029088905
107	0x3d994483	0.07483771
108	0xbdc0fb26	-0.09422903
109	0xbe025358	-0.12727106
110	0xbdd4634f	-0.10370504
111	0xbd36047a	-0.044437863
112	0xbde77ee7	-0.113035016
113	0x3dca5f55	0.098814644
114	0xbcb4ff66	-0.02209444
115	0xbbe47762	-0.0069722394
116	0xbd8f84c7	-0.07007747
117	0xbd070da0	-0.03297198
118	0xbd196509	-0.03744987
119	0xbcd93c0e	-0.026517894
120	0xbd426e76	-0.047468625
121	0xbdb6e42f	-0.08930241
122	0x3d1e3952	0.038628884
123	0xbcf544d2	-0.029940043
124	0x3d2c288d	0.04203086
125	0xbca6725f	-0.020318208
126	0x3e02343a	0.12715235
127	0x3bf945d1	0.0076071997
128	0xbd92c41f	-0.071663134
129	0xbdd76aa4	-0.10518387
130	0xbd919033	-0.07107582
131	0x3cc9065a	0.024539161
132	0xbcbcc208	-0.02304174
133	0xbc629dde	-0.013831584
134	0x3c801749	0.015636103
135	0x3dff7e32	0.12475242
136	0xbd9c6c24	-0.07637814
137	0x3d0b546f	0.03401607
138	0x3d136e75	0.035994012
139	0x3d987f3d	0.07446144
140	0x3dd142f5	0.10217849
141	0xbe23c2f6	-0.1599234
142	0x3cbc4fe5	0.022987315
143	0xba667dd2	-0.00087925524
144	0x3d9a9e80	0.07549763
145	0xbd63f066	-0.055649184
146	0xbe014157	-0.12622581
147	0xbe1b2992	-0.15152577
148	0x3dcf3ebd	0.10119388
149	0x3bfb4760	0.0076684207
150	0xbdfcc55e	-0.12342332
151	0x3d849784	0.06474212
152	0xbcfc1a97	-0.030774398
153	0xbd76e001	-0.06027222
154	0x3dabdaf7	0.083913736
155	0xbe0ded1d	-0.13859983
156	0xbddea758	-0.10871762
157	0xbd90765f	-0.070538275
158	0x3c56f26a	0.013119319
159	0xbcbb8acb	-0.02289333
160	0xbda4d57d	-0.08048532
161	0xbd163cda	-0.036679126
162	0x3da0fb01	0.07860375
163	0xbd54b972	-0.051934667
164	0x3dac5969	0.08415491
165	0xbcd83e8d	-0.026397014
166	0x3dac1367	0.08402138
167	0x3daaadbf	0.08333921
168	0x3d9a02f2	0.07520093
169	0xbd738e69	-0.059461985
170	0xbded9d00	-0.11602211
171	0x3cfac579	0.03061174
172	0x3b919d8d	0.0044438303
173	0x3d8fe349	0.07025773
174	0x3d21302d	0.039352585
175	0xbc3e018e	-0.01159705
176	0xbd69ded2	-0.057097264
177	0xbcb6f59b	-0.02233391
178	0xbc62790e	-0.013822807
179	0xbdaa18a7	-0.08305483
180	0x3bc295b9	0.0059382585
181	0xbd631708	-0.055441886
182	0x3c1662ef	0.009178861
183	0x3d83662c	0.06415972
184	0x3d7308b4	0.05933447
185	0x3dc51f0e	0.09625064
186	0xbcd25c82	-0.025678877
187	0xbcd65d6b	-0.026167592
188	0x3ce7225b	0.028214624
189	0x3ddd950c	0.10819444
190	0xbdb2dafc	-0.08733174
191	0xbdc57bb0	-0.09642732
192	0xbdf159a6	-0.11784677
193	0x3dd70ecd	0.1050087
194	0x3d16e134	0.036835864
195	0xbd8f9091	-0.07009996
196	0xbd7ba431	-0.061435882
197	0x3c02ab65	0.007975434
198	0x3d59d2cd	0.05317955
199	0xbdd9803c	-0.10620162
200	0xbcfe6e46	-0.031058442
201	0xbda1c982	-0.07899763
202	0xbd8d772e	-0.06907497
203	0xbd13a317	-0.036044206
204	0xbc004bd6	-0.007830581
205	0x3d0cd2ad	0.034380604
206	0xbd42c256	-0.047548614
207	0x3d226e03	0.039655697
208	0x3d7a603b	0.06112693
209	0x3cbf61d9	0.023362087
210	0x3d909540	0.07059717
211	0x3b24aa25	0.0025125828
212	0x3d569d06	0.052395843
213	0xbd4fada9	-0.050702725
214	0xbe2392f8	-0.15974033
215	0x3d7144d1	0.05890352
216	0xbcfcf94c	-0.030880593
217	0x3c2a0fa6	0.010379707
218	0x3dc700e1	0.097169645
219	0x3d0c6234	0.03427334
220	0x3d3b409c	0.045715913
221	0x3defff43	0.11718609
222	0x3bc5cb69	0.0060362113
223	0x3cacbbd7	0.021085663
224	0xbc99b237	-0.018761737
225	0x3c8e4238	0.01736556
226	0xbda11c94	-0.07866779
227	0xbd9702b9	-0.07373566
228	0x3d06fabf	0.032953974
229	0xba846cd8	-0.0010103239
230	0xbd990b5e	-0.07472871
231	0x3dc6727a	0.096898034
232	0xbdbea650	-0.09309065
233	0xbd076ce0	-0.033062816
234	0x3dbc3712	0.09190191
235	0xbda92c3f	-0.082603924
236	0xbd1cbafc	-0.03826426
237	0x3dbb6e68	0.09151918
238	0xbdbb3b1f	-0.09142136
239	0x3d77f84a	0.06053952
240	0x3dc3d573	0.095621966
241	0xbaeabfde	-0.0017909964
242	0x3dff03a0	0.12451863
243	0xbd354ffe	-0.04426574
244	0xbd8b216e	-0.067934856
245	0x3d00abb8	0.031413764
246	0x3d47d4e5	0.048787016
247	0x3e097363	0.13422923
248	0xbd75dd4c	-0.0600255
249	0x3c09e490	0.00841631
250	0xbdc9f4ba	-0.09861131
251	0x3d299a7b	0.04140709
252	0xbd8d3ff8	-0.06896967
253	0xbc5ea3f4	-0.013588894
254	0x3d83ec3d	0.06441543
255	0x3d5cf989	0.053948913

net.2.bias f4 [256]
0	0xbd13a738	-0.036048144
1	0xbcbd63ad	-0.023118818
2	0x3ce10ec6	0.027472865
3	0xbcdc224f	-0.026871828
4	0xbd839319	-0.06424541
5	0xbbdceac8	-0.0067418553
6	0x3c96f89a	0.01842909
7	0x3cc33a9b	0.023831656
8	0xbd66ec87	-0.056377914
9	0xbd110213	-0.03540237
10	0x3d279224	0.040910855
11	0xbb042e27	-0.002016911
12	0xbcad133a	-0.021127332
13	0x3cfd9188	0.030953184
14	0xbcd9f45e	-0.026605781
15	0xbd298867	-0.04138985
16	0xbce127cb	-0.027484795
17	0xbcedebb2	-0.029043052
18	0xba8a7305	-0.0010562843
19	0x3b06a1c4	0.0020543197
20	0x3c35cd2f	0.011096283
21	0x3cb2181e	0.021740016
22	0xbd43f700	-0.04784298
23	0xbcc2ecef	-0.02379462
24	0xbce351f2	-0.027749036
25	0xbaebaf85	-0.0017981386
26	0xbd3b1d91	-0.045682494
27	0xbd17a127	-0.03701892
28	0xbd1ff198	-0.03904876
29	0xbca3813b	-0.019959083
30	0xbaa0bb48	-0.0012262845
31	0xbccd867d	-0.025088543
32	0xbcf3c75f	-0.029758153
33	0xbc461ffb	-0.012092586
34	0x3b5c5496	0.0033619753
35	0x3b8a05a9	0.0042121005
36	0xbcba46d6	-0.022738855
37	0xbb93aa25	-0.004506367
38	0xbad7a804	-0.0016453271
39	0x3d234af5	0.039866406
40	0xbd13f51e	-0.036122434
41	0xbcacd21d	-0.021096284
42	0x3ce9378d	0.028468871
43	0xbc9b7a8f	-0.018979339
44	0x3c9ddd86	0.01927067
45	0x3b9dce89	0.0048158807
46	0x3d891381	0.06693173
47	0x3a6181b6	0.0008602397
48	0xbd3ec022	-0.04656995
49	0xbd138077	-0.036011185
50	0xbd4c5f88	-0.049895793
51	0xbd1e4e79	-0.038649056
52	0xbbb80930	-0.0056163296
53	0xbca83b9f	-0.020536242
54	0xbd001e29	-0.031278763
55	0xbd018e8e	-0.03163009
56	0xbbde8dc6	-0.006791803
57	0x3c8569e3	0.016285842
58	0x3d3d0dc6	0.046155713
59	0xbc30a825	-0.010782276
60	0xbb75d71c	-0.0037512248
61	0x3bebaf9b	0.0071925647
62	0x3bec0c53	0.0072036176
63	0x3cf846f2	0.030307267
64	0xbd366d51	-0.044537846
65	0xbd21b9c3	-0.039483797
66	0xbc7f8064	-0.015594576
67	0x3c3c1bd0	0.01148124
68	0xbbf5be4c	-0.007499492
69	0xbc785e18	-0.015159152
70	0x3cd48f21	0.025947155
71	0xbd879686	-0.06620507
72	0xbcc28157	-0.023743315
73	0xb8add713	-8.2893435e-05
74	0xbcea3585	-0.028589973
75	0xbc9d01da	-0.019165922
76	0x3d0789a8	0.033090264
77	0xbd84acdb	-0.06478282
78	0xbc6bc28b	-0.014389644
79	0xbce02791	-0.027362617
80	0x3c3a43f3	0.011368739
81	0xbca14031	-0.01968393
82	0xbc324876	-0.010881534
83	0xbd2bee22	-0.041975148
84	0xbc48eb17	-0.012263081
85	0x3cc8d72c	0.024516664
86	0x3c720863	0.014772507
87	0x3d034e27	0.032056954
88	0xbca43415	-0.020044366
89	0x3b8a7541	0.0042254035
90	0x3c5530bd	0.013012108
91	0x3c04a87e	0.008096812
92	0xbcfc1fb3	-0.030776834
93	0xbd2228a1	-0.039589528
94	0x3c6eeece	0.014583303
95	0xbd13a7a9	-0.036048565
96	0x3c96b373	0.018396115
97	0x3c198e12	0.009372251
98	0x3cd5c4e1	0.026094856
99	0xbca0dc0a	-0.019636173
100	0xbd1862a7	-0.037203457
101	0xbc3c7685	-0.011502867
102	0xbd0c1ccd	-0.034207154
103	0x3b9f71eb	0.004865875
104	0xbc70e1c1	-0.014702261
105	0xbbab61e3	-0.005230175
106	0xbd3c03b2	-0.04590196
107	0x3b3c17e1	0.0028700756
108	0x3c1cb444	0.009564463
109	0xba4ab5aa	-0.00077327585
110	0xbbd67921	-0.0065452014
111	0xbc7144e5	-0.014725898
112	0x3a78d447	0.0009492081
113	0xbcd66ff4	-0.02617643
114	0xbc88f8e8	-0.01672025
115	0x3c4db8ef	0.012556299
116	0x3d9d02f3	0.07666578
117	0xbbbee1ff	-0.0058252807
118	0xbc6ff974	-0.014646877
119	0x3c1afff5	0.009460439
120	0xbb1dd205	-0.002408148
121	0xbcc43ae7	-0.023953868
122	0xbc9345eb	-0.017977675
123	0x3cade3fc	0.021226875
124	0x39ef80c7	0.0004568158
125	0xbbc02c00	-0.00586462
126	0xbc548ce6	-0.012973046
127	0xbc810780	-0.015750647
128	0x3c82c13a	0.015961278
129	0x3c471bc6	0.012152618
130	0xbd55feee	-0.052245073
131	0xbd1ce865	-0.038307566
132	0xbceab649	-0.028651373
133	0xbc51b8a7	-0.012800372
134	0xbd2cbb4d	-0.04217081
135	0xbc875e96	-0.016524594
136	0x3c9e4fd6	0.019325178
137	0xbd4d555d	-0.050130237
138	0xbca7188a	-0.020397443
139	0xbd214928	-0.039376408
140	0xbd698e09	-0.05702022
141	0xbca7b0de	-0.020470079
142	0xbd4fc637	-0.05072614
143	0xbc5f1082	-0.013614776
144	0x3b45b85a	0.0030169697
145	0xbc815ffc	-0.01579284
146	0xbd86c683	-0.06580832
147	0x3c8cebc8	0.017202273
148	0xbcc58c96	-0.024114888
149	0xbcd3cedb	-0.025855472
150	0xbb7d8265	-0.0038682458
151	0xbd5379db	-0.051629882
152	0x3cd5ed5e	0.026114162
153	0x3ba7539c	0.0051064026
154	0xbcab68fa	-0.02092408
155	0xbd1b8614	-0.037969664
156	0xbbc98a60	-0.006150529
157	0x3c9cc9e7	0.019139243
158	0x3c8722a3	0.016496008
159	0xbc5619dd	-0.01306769
160	0x3d1cab37	0.03824922
161	0xbd72eeff	-0.059309956
162	0x3ba5fc13	0.00506545
163	0xbca201fd	-0.019776339
164	0xbcbc46a7	-0.022982908
165	0xbd4680b6	-0.048462592
166	0xbce0ab85	-0.027425537
167	0x3caafaa5	0.02087147
168	0xbc9955ee	-0.018717732
169	0xbc599716	-0.013280651
170	0xbba8775f	-0.0051411833
171	0x3b053460	0.0020325407
172	0x3cdca2d1	0.026933106
173	0xbd3c6880	-0.045998096
174	0xbcfffbde	-0.03124803
175	0xbbf9e2e6	-0.0076259254
176	0x3c8a2aeb	0.016866168
177	0xbcd1e16b	-0.025620183
178	0x3d5b0bd6	0.053478085
179	0xbcd6c794	-0.026218213
180	0xbb8e8b5b	-0.0043501086
181	0x3c866240	0.016404271
182	0xbcd6c185	-0.026215324
183	0x3b23cea5	0.0024994996
184	0x3c6d359e	0.014478115
185	0xbcd839a9	-0.026394682
186	0x3ca27598	0.019831464
187	0x3aa5007e	0.0012588648
188	0xbc297f19	-0.010345244
189	0x3c636220	0.013878375
190	0xbd26444c	-0.040592477
191	0xbc2dfa08	-0.010618694
192	0xbd94dc45	-0.072685756
193	0xbc102a3d	-0.008799133
194	0x3a4ba398	0.0007768213
195	0x3caf4ced	0.021398986
196	0xbd0a7fcd	-0.033813287
197	0x3d9bde42	0.07610752
198	0xbd5066e3	-0.05087937
199	0xbc2a54e5	-0.010396217
200	0xbb6a7c7b	-0.0035779763
201	0xbca8857a	-0.02057146
202	0xbcc79ef5	-0.024367789
203	0xbc8985ca	-0.016787428
204	0xbd7a849d	-0.061161626
205	0xbc85974b	-0.016307494
206	0xbc081e66	-0.008308029
207	0xbd01428f	-0.031557616
208	0xbd341a78	-0.043970555
209	0x3d123dd0	0.03570348
210	0xbd2a4ab7	-0.04157516
211	0xbce97a06	-0.028500568
212	0xbd5201ca	-0.051271237
213	0x3c685a81	0.014181734
214	0xbcff3b02	-0.031156067
215	0xbc01bbc7	-0.007918305
216	0xbc8a5b73	-0.01688931
217	0xbd00342a	-0.031299748
218	0xbcdb7e47	-0.026793612
219	0xbcf38238	-0.02972518
220	0x3c7f9099	0.01559844
221	0xbd2866a5	-0.041113514
222	0x3c7ff054	0.0156212635
223	0xbc344e85	-0.011005049
224	0x3cdc7e7b	0.02691578
225	0x3d01137f	0.031512734
226	0x3b57aab0	0.0032908134
227	0xbd0cf519	-0.03441343
228	0xbced8db1	-0.028998228
229	0xbcbe6215	-0.023240129
230	0xbb8114af	-0.0039392333
231	0xbce99802	-0.028514866
232	0xbcc144af	-0.023592321
233	0xbc12e726	-0.008966243
234	0x3bc66b53	0.0060552745
235	0xbcb42c58	-0.021993801
236	0xbc80a741	-0.015704753
237	0xbbc73515	-0.006079326
238	0xbd230337	-0.039797988
239	0xbcaa8c6e	-0.020818915
240	0x3c1f7496	0.009732386
241	0xbc9bd446	-0.019022118
242	0x3af630d7	0.0018782866
243	0xbda6c8e9	-0.08143789
244	0xbcfa6dcd	-0.030569935
245	0x3b569600	0.0032743216
246	0xbc4a1139	-0.012333208
247	0xbd03d813	-0.032188486
248	0x3c8909d2	0.016728316
249	0xbd293f30	-0.041320026
250	0xbcb8ca29	-0.022557335
251	0xbd84131c	-0.06448957
252	0xbcbdb9cf	-0.02315989
253	0xbd150db9	-0.03639004
254	0xbc397eb9	-0.011321717
255	0xbcec2645	-0.028826842

net.last_linear.weight f4 [4, 256]
0	0xbddbe026	-0.10736112
1	0xbdb8d98f	-0.09025871
2	0xbdb52747	-0.08845382
3	0x3dbde266	0.09271698
4	0xbdb99dbe	-0.0906329
5	0xbe2478b0	-0.16061664
6	0x3d95d096	0.07315175
7	0x3d85e5da	0.06537981
8	0x3e69606a	0.22790685
9	0xbe207a1f	-0.15671586
10	0xbdc63eec	-0.0967997
11	0xbe2e8cb5	-0.17045863
12	0xbdbf0c88	-0.09328562
13	0xbe211377	-0.15730081
14	0xbe0486c4	-0.12942034
15	0xbcf40bf2	-0.029790852
16	0x3e090070	0.13379073
17	0x3de28e0c	0.110622495
18	0xbe7a6f80	-0.24456596
19	0x3db9f618	0.09080142
20	0x3e23a0f0	0.15979362
21	0x3dcc1e4b	0.099667154
22	0xbe0916cd	-0.13387604
23	0x3e26fc04	0.16307074
24	0x3de1590a	0.11003311
25	0xbe4b6d79	-0.19865979
26	0xbdfe9e8c	-0.12432584
27	0xbd9359b4	-0.07194844
28	0x3dfae550	0.12250769
29	0x3d0fca67	0.035105135
30	0x3cc85098	0.024452493
31	0xbe42fc4d	-0.19041558
32	0x3e7d554c	0.2473957
33	0xbe3841a9	-0.17993797
34	0xbe22a61e	-0.15883681
35	0xbde5fa8d	-0.112294294
36	0x3dc326dc	0.09528896
37	0xbd8436a2	-0.06455733
38	0xbe156d49	-0.1459247
39	0x3b29bef8	0.002590118
40	0x3e1efc3e	0.1552591
41	0xbe087b97	-0.13328396
42	0xbdd108ee	-0.10206781
43	0xbe201342	-0.15632346
44	0x3e0bfdf9	0.13671102
45	0xbe0425ca	-0.1290504
46	0xbbfbfa5d	-0.0076897577
47	0x3dd1ecb0	0.10250223
48	0x3e308f4b	0.17242162
49	0x3e65cccb	0.22441404
50	0x3e41b5e9	0.1891705
51	0x3d4f1f3d	0.0505669
52	0x3e0d3eba	0.1379346
53	0x3de9cbc8	0.11415821
54	0x3e4568d1	0.19278266
55	0x3e40df6c	0.18835229
56	0x3d8e7aec	0.06957039
57	0xbdf4fb92	-0.11962046
58	0xbc101147	-0.008793182
59	0x3e1742bb	0.1477155
60	0x3e0847b6	0.13308606
61	0xbdfe7914	-0.124254376
62	0x3d945dd5	0.072444595
63	0xbe10ede5	-0.1415325
64	0xbe0eebf6	-0.139572
65	0x3d9c4f19	0.07632274
66	0x3e486ba5	0.19572313
67	0xbc853058	-0.016258404
68	0xbe293f46	-0.16528043
69	0x3da81a0d	0.08208094
70	0x3c7ac4f7	0.015305749
71	0x3dfe1028	0.12405425
72	0x3e27b322	0.16376927
73	0xbe387024	-0.18011528
74	0xbcd3d19f	-0.025856791
75	0x3e6e0a2a	0.23246065
76	0xbde3c1f6	-0.111209795
77	0x3d16f2e8	0.036852747
78	0x3cbb0a10	0.022831947
79	0x3e227ab8	0.15867126
80	0x3e058bfc	0.13041681
81	0x3d3957bc	0.045249686
82	0xbe0d13ef	-0.13777135
83	0x3de8a740	0.113600254
84	0xbe188fda	-0.14898625
85	0x3e05f517	0.13081776
86	0x3c73f071	0.014888869
87	0xbdf60bd2	-0.12013973
88	0xbd8df680	-0.06931782
89	0xbe0291d4	-0.12750942
90	0xbe009397	-0.12556301
91	0xbc846754	-0.016162552
92	0xbe39e17e	-0.18152425
93	0xbd940eb3	-0.07229366
94	0xbd482ee9	-0.048872862
95	0xbdeaf503	-0.114725135
96	0x3d71ff47	0.059081342
97	0xbe375d56	-0.17906699
98	0x3e162463	0.14662318
99	0x3e2ac952	0.1667836
100	0xbe28c67e	-0.16481969
101	0x3e2740cb	0.1633331
102	0xbe04b699	-0.1296028
103	0x3e24b788	0.16085637
104	0xbdc7ccc8	-0.09755856
105	0xbda2e394	-0.07953563
106	0xbe6825e7	-0.22670709
107	0x3e0aab55	0.1354192
108	0xbda23c35	-0.0792164
109	0x3cf5158d	0.029917503
110	0x3e46a3b0	0.1939838
111	0x3e6a7417	0.22895847
112	0x3dcf8e92	0.10134615
113	0x3df1d199	0.11807556
114	0x3debfa34	0.11522332
115	0x3da008cb	0.07814177
116	0x3d283ec1	0.04107547
117	0xbdff07e9	-0.124526806
118	0xbdad9baa	-0.08476956
119	0xbdd13c34	-0.10216561
120	0xbdb54c51	-0.08852447
121	0xbe46e8f4	-0.19424802
122	0xbe43443a	-0.19068995
123	0x3dfcfe01	0.12353135
124	0x3e4e8a4e	0.20169947
125	0xbe07e113	-0.13269453
126	0xbd4cf9eb	-0.050043028
127	0xbe27cf81	-0.1638775
128	0xbe15ba97	-0.1462196
129	0xbcb4553e	-0.022013303
130	0x3e05eb64	0.13078076
131	0x3df8a775	0.12141315
132	0x3d9e9fa6	0.07745294
133	0xbe89dd4f	-0.26926658
134	0x3e9b85fd	0.30375662
135	0x3d701a8b	0.058619063
136	0xbdec4c3d	-0.11537979
137	0xbdcb898e	-0.09938346
138	0xbe191d44	-0.1495257
139	0x3e1cc4d9	0.15309466
140	0x3db66055	0.089050926
141	0x3e54b570	0.20772338
142	0x3e82f3c6	0.2557661
143	0xbe94cdf4	-0.2906338
144	0x3d97f539	0.074198194
145	0xbe4e074b	-0.2011997
146	0xbd14f0e2	-0.036362536
147	0xbe1e1b8b	-0.15440194
148	0x3e12edc3	0.14348511
149	0xbdbbd580	-0.09171581
150	0xbe2a2c76	-0.16618523
151	0x3d05f973	0.032708596
152	0xbd893481	-0.066994675
153	0xbd5e6802	-0.05429841
154	0xbdcde041	-0.10052539
155	0xbd3780ea	-0.044800676
156	0xbc808a42	-0.015690926
157	0xbe0e669d	-0.13906331
158	0xbdd54b1a	-0.10414715
159	0xbe2d019d	-0.16895147
160	0xbde90dd2	-0.11379589
161	0xbda75a38	-0.08171505
162	0x3e6d6ec8	0.23186791
163	0x3e261b3c	0.16221327
164	0x3ce72dce	0.028220084
165	0x3e590479	0.21193112
166	0x3e188493	0.14894323
167	0x3dae8672	0.08521737
168	0x3e253b31	0.16135861
169	0x3e12b550	0.14326978
170	0x3e5d7205	0.21625526
171	0x3dcbaa1f	0.099445574
172	0x3dda63c8	0.10663563
173	0xbd3bf763	-0.045890223
174	0x3e0defc4	0.13860995
175	0x3d1c0730	0.038092792
176	0x3e3ade2b	0.18248813
177	0x3e261bb6	0.16221508
178	0x3bfc1ed9	0.007694107
179	0x3e032f60	0.12811041
180	0x3e10d7a6	0.14144763
181	0x3dea43cb	0.11438712
182	0xbd49332e	-0.049121074
183	0xbe0a22a5	-0.13489778
184	0xbda5def8	-0.080991685
185	0x3e1adf70	0.15124297
186	0x3d967aed	0.07347665
187	0x3db31b14	0.08745399
188	0x3e48dd88	0.19615757
189	0xbd8d5876	-0.06901638
190	0x3d8df20c	0.069309324
191	0xbe5b3877	-0.21408258
192	0x3df2da89	0.118580885
193	0x3c604d8d	0.013690365
194	0x3d866998	0.06563109
195	0xbc6d02a1	-0.014465959
196	0xbe42bcad	-0.19017287
197	0xbca4ee17	-0.020133061
198	0x3e6f04cf	0.23341678
199	0xbd1dfff7	-0.038574185
200	0x3e0a14e7	0.13484536
201	0x3cee452c	0.029085718
202	0x3d11db1b	0.035609346
203	0x3e262c73	0.16227894
204	0x3d817fa1	0.063231714
205	0x3e421175	0.18951972
206	0xbe1ae6ce	-0.15127108
207	0xba73728f	-0.0009286785
208	0xbe792c9f	-0.24333428
209	0x3e007d0d	0.12547703
210	0xbd14d1dc	-0.03633295
211	0xbe07502a	-0.13214174
212	0x3daeea81	0.08540822
213	0xbe33d785	-0.17562683
214	0x3e7ca1f0	0.24671149
215	0xbe203bec	-0.15647858
216	0x3e1503e5	0.14552267
217	0xbe4dc4fa	-0.20094672
218	0xbd5ef4d1	-0.054432694
219	0x3d87ee7c	0.06637284
220	0xbde8a9a9	-0.11360485
221	0x3e39fc80	0.18162727
222	0x3cfaba93	0.030606544
223	0x3e5973ec	0.21235627
224	0xbd8a863d	-0.06763885
225	0xbe51dedf	-0.20495175
226	0xbe0f2950	-0.13980603
227	0x3de8f2ac	0.11374411
228	0x3dae2799	0.085036464
229	0x3e011908	0.12607205
230	0xbe30b0c9	-0.17254938
231	0xbd54b634	-0.051931575
232	0x3e5e652a	0.21718279
233	0x3e0fc677	0.14040552
234	0x3d86cae3	0.06581666
235	0x3e664cd0	0.22490239
236	0x3df48723	0.11939838
237	0xbe481c29	-0.19541992
238	0xbda9dc76	-0.08294003
239	0xbde703d9	-0.11280031
240	0xbd17d08d	-0.037064124
241	0x3e1a60c3	0.15075974
242	0xbd54d27b	-0.051958542
243	0xbc969207	-0.018380178
244	0x3d9eccfc	0.077539414
245	0xbe13f22d	-0.14447851
246	0x3cea233a	0.02858125
247	0xbd3ab8f0	-0.045586526
248	0xbd234611	-0.039861742
249	0x3ca8c17f	0.020600079
250	0x3ce4ee44	0.027945645
251	0x3e3fc27b	0.18726532
252	0x3c2cd24e	0.010548187
253	0x3c96bfbe	0.018401977
254	0xbe3ba617	-0.18325077
255	0x3e059d41	0.13048269

net.last_linear.bias f4 [4]
0	0xbc289fb9	-0.010291987
1	0xbbbe7758	-0.0058125667
2	0xbd9eba69	-0.07750399
3	0xbdcd3722	-0.100202814
